presentation/transfer_bkout_pong_cnn/cache_model_transfer_learning_ALE_Pong-v5_from_pretrained_model_ALE_Breakout-v5_DQN_CONV_10000.pth (torch, 9102 bytes, 9 tensors)

0.conv1.weight f4 [1, 1, 12, 12]
000000 7e 2b 0b 3d 08 f4 b3 bc 4e 91 98 3e dc ba 80 bd
       0.033977024 -0.02196695 0.2979836 -0.062856406
000010 63 56 0f 3e ed a2 9c 3c ad 95 37 3e 75 97 f6 3d
       0.13997798 0.019120658 0.1792819 0.12040607
000020 9d 3d 09 be f0 d5 cd 3c 32 d1 ca bb ef 4e 40 3e
       -0.1340241 0.025126427 -0.006189489 0.18780111
000030 a8 d0 e2 3d c6 ec e8 bd da 59 8f be b7 4f 76 3c
       0.11074954 -0.11373286 -0.2799824 0.015033654
000040 54 1d e1 3b e1 64 2f be 2d 22 f7 bd 0f 8d e1 bc
       0.0068699513 -0.17128326 -0.120670654 -0.027533082
000050 39 1b 09 3e c8 36 38 bd a1 8e 71 bd c2 33 18 be
       0.13389291 -0.04497412 -0.058973912 -0.14863494
000060 4a 4a d3 be 3b 8d c0 3e 42 15 9b 3d 65 1c 04 bf
       -0.41267616 0.3760775 0.07572414 -0.51605827
000070 5f 73 44 be 82 6a 44 3f 4f 10 ba be a3 0f 32 bf
       -0.19184636 0.7672502 -0.36340567 -0.6955511
000080 33 c3 92 3e 07 a7 96 be 53 20 87 3e 36 a6 6e be
       0.2866455 -0.29424307 0.2639185 -0.23305592
000090 29 9e 74 3d b0 70 79 3e 7f b6 25 3e 78 bd 0d bd
       0.059721146 0.24359393 0.16182898 -0.03460452
0000a0 b6 ff 11 bf 78 c7 a0 3e a0 e7 a7 bd 09 09 a4 3e
       -0.5703081 0.31402183 -0.08198476 0.32038143
0000b0 3c a9 4a bf 24 6d 45 be b9 15 80 bd 02 69 0a bf
       -0.7916448 -0.19279915 -0.06254143 -0.5406648
0000c0 4f 51 09 3f 6b 39 bc bd e7 3b 96 be 86 7e 0f bd
       0.5363969 -0.09190639 -0.29342577 -0.03503277
0000d0 6c e2 c5 bc 31 a6 2f 3f 9b c3 d8 3c 64 28 b6 3e
       -0.024155818 0.6861296 0.02646046 0.3557769
0000e0 bb 52 44 be 81 7d 5c bd 7f e8 02 3f c4 7f b8 be
       -0.19172184 -0.053830627 0.5113601 -0.36034977
0000f0 00 ec 7d be 87 54 49 3e 01 91 5e be 27 fd 28 3d
       -0.24797058 0.19661151 -0.21735002 0.04125705
000100 e0 ee cd be 9c b9 ac 3e 86 9b 3c be 49 57 23 bd
       -0.4022131 0.3373536 -0.18418702 -0.039878163
000110 5c b0 d5 be d9 ad 96 bd 63 21 b9 3c e8 fd 50 be
       -0.41736114 -0.073573776 0.022598928 -0.20409358
000120 b3 95 1e 3e 74 1f ed be 3a 65 cf 3e d1 58 c6 be
       0.15486793 -0.4631306 0.40506917 -0.38739637
000130 05 fa 01 3d 92 02 54 be cb 71 5e bd 31 d0 01 3f
       0.031732578 -0.20704105 -0.05430774 0.507083
000140 e7 ad 14 be 78 8d da 3d e6 1f 97 3e 57 aa ec be
       -0.14519463 0.10671514 0.29516524 -0.4622371
000150 ab 3a 9b bd 9b a7 cd 3e 40 62 de 3d 61 64 c1 3d
       -0.075795494 0.40166935 0.108585835 0.09442974
000160 af 14 d2 3e 83 e1 60 3e 79 f9 3a bd 8f 6a a9 bc
       0.41031405 0.21961026 -0.045648072 -0.020680694
000170 7e 3d 07 bf 34 6a e7 3d 70 e4 88 3e f4 37 c7 3e
       -0.52828205 0.112995535 0.26736784 0.38909876
000180 50 a9 7d 3e d5 a6 e7 bd f4 1e dc 3d 1f d5 31 3d
       0.24771619 -0.113111176 0.10748091 0.04341614
000190 cd d4 91 bd b9 70 b0 3e d2 49 bd be 03 c9 20 3e
       -0.07120667 0.34461 -0.36970383 0.1570168
0001a0 71 bf 04 3e 58 4b 23 3c f4 ae ad bd 19 1f 8c 3e
       0.12963654 0.009966694 -0.08480635 0.27367476
0001b0 01 78 da 3d d6 5e 5f 3d 3c a6 4f 3e 91 00 0d bd
       0.1066742 0.054533802 0.20278257 -0.03442437
0001c0 77 9a 38 3e a2 3f f8 3d f9 06 bb 3c b6 6d 9f 3d
       0.18027674 0.12121512 0.022830473 0.077845976
0001d0 b0 5e ef be 93 b7 42 bd ae a6 5b bd 58 31 a8 3d
       -0.46751928 -0.04753835 -0.053625755 0.082125366
0001e0 f2 b5 46 3e 2f 42 f6 3d 7b 44 a7 be 03 af 4e be
       0.19405344 0.12024342 -0.32669434 -0.20183949
0001f0 ac b9 03 bd 86 78 e4 3e 26 cb 58 bd c7 3f 4f 3e
       -0.032159492 0.44623202 -0.052928112 0.20239173
000200 e5 8e 18 be 8c df 80 3d fb 1a 11 3d e2 a7 54 3e
       -0.1489826 0.06292638 0.03542612 0.20767167
000210 79 16 d1 bd 49 7d 1b be 0d dc 2b 3e 6d b2 85 be
       -0.102093644 -0.15184511 0.16783161 -0.2611269
000220 38 68 55 3d 9d 55 ad 3c 10 0d b1 3d 72 8e c8 bd
       0.052101344 0.021158988 0.086450696 -0.09792794
000230 4a b8 5c be d4 66 cb bd f6 5c ba 3b d2 4a cb 3d
       -0.21554676 -0.09931722 0.0056873513 0.0992638

0.bn1.weight f4 [64]
000000 00 00 80 3f 00 00 80 3f 00 00 80 3f 00 00 80 3f
       1.0 1.0 1.0 1.0
000010 00 00 80 3f 00 00 80 3f 00 00 80 3f 00 00 80 3f
       1.0 1.0 1.0 1.0
000020 00 00 80 3f 00 00 80 3f 00 00 80 3f 00 00 80 3f
       1.0 1.0 1.0 1.0
000030 00 00 80 3f 00 00 80 3f 00 00 80 3f 00 00 80 3f
       1.0 1.0 1.0 1.0
000040 00 00 80 3f 00 00 80 3f 00 00 80 3f 00 00 80 3f
       1.0 1.0 1.0 1.0
000050 00 00 80 3f 00 00 80 3f 00 00 80 3f 00 00 80 3f
       1.0 1.0 1.0 1.0
000060 00 00 80 3f 00 00 80 3f 00 00 80 3f 00 00 80 3f
       1.0 1.0 1.0 1.0
000070 00 00 80 3f 00 00 80 3f 00 00 80 3f 00 00 80 3f
       1.0 1.0 1.0 1.0
000080 00 00 80 3f 00 00 80 3f 00 00 80 3f 00 00 80 3f
       1.0 1.0 1.0 1.0
000090 00 00 80 3f 00 00 80 3f 00 00 80 3f 00 00 80 3f
       1.0 1.0 1.0 1.0
0000a0 00 00 80 3f 00 00 80 3f 00 00 80 3f 00 00 80 3f
       1.0 1.0 1.0 1.0
0000b0 00 00 80 3f 00 00 80 3f 00 00 80 3f 00 00 80 3f
       1.0 1.0 1.0 1.0
0000c0 00 00 80 3f 00 00 80 3f 00 00 80 3f 00 00 80 3f
       1.0 1.0 1.0 1.0
0000d0 00 00 80 3f 00 00 80 3f 00 00 80 3f 00 00 80 3f
       1.0 1.0 1.0 1.0
0000e0 00 00 80 3f 00 00 80 3f 00 00 80 3f 00 00 80 3f
       1.0 1.0 1.0 1.0
0000f0 00 00 80 3f 00 00 80 3f 00 00 80 3f 00 00 80 3f
       1.0 1.0 1.0 1.0

0.bn1.bias f4 [64]
000000 00 00 00 00 00 00 00 00 00 00 00 00 00 00 00 00
       0.0 0.0 0.0 0.0
000010 00 00 00 00 00 00 00 00 00 00 00 00 00 00 00 00
       0.0 0.0 0.0 0.0
000020 00 00 00 00 00 00 00 00 00 00 00 00 00 00 00 00
       0.0 0.0 0.0 0.0
000030 00 00 00 00 00 00 00 00 00 00 00 00 00 00 00 00
       0.0 0.0 0.0 0.0
000040 00 00 00 00 00 00 00 00 00 00 00 00 00 00 00 00
       0.0 0.0 0.0 0.0
000050 00 00 00 00 00 00 00 00 00 00 00 00 00 00 00 00
       0.0 0.0 0.0 0.0
000060 00 00 00 00 00 00 00 00 00 00 00 00 00 00 00 00
       0.0 0.0 0.0 0.0
000070 00 00 00 00 00 00 00 00 00 00 00 00 00 00 00 00
       0.0 0.0 0.0 0.0
000080 00 00 00 00 00 00 00 00 00 00 00 00 00 00 00 00
       0.0 0.0 0.0 0.0
000090 00 00 00 00 00 00 00 00 00 00 00 00 00 00 00 00
       0.0 0.0 0.0 0.0
0000a0 00 00 00 00 00 00 00 00 00 00 00 00 00 00 00 00
       0.0 0.0 0.0 0.0
0000b0 00 00 00 00 00 00 00 00 00 00 00 00 00 00 00 00
       0.0 0.0 0.0 0.0
0000c0 00 00 00 00 00 00 00 00 00 00 00 00 00 00 00 00
       0.0 0.0 0.0 0.0
0000d0 00 00 00 00 00 00 00 00 00 00 00 00 00 00 00 00
       0.0 0.0 0.0 0.0
0000e0 00 00 00 00 00 00 00 00 00 00 00 00 00 00 00 00
       0.0 0.0 0.0 0.0
0000f0 00 00 00 00 00 00 00 00 00 00 00 00 00 00 00 00
       0.0 0.0 0.0 0.0

0.bn1.running_mean f4 [64]
000000 00 00 00 00 00 00 00 00 00 00 00 00 00 00 00 00
       0.0 0.0 0.0 0.0
000010 00 00 00 00 00 00 00 00 00 00 00 00 00 00 00 00
       0.0 0.0 0.0 0.0
000020 00 00 00 00 00 00 00 00 00 00 00 00 00 00 00 00
       0.0 0.0 0.0 0.0
000030 00 00 00 00 00 00 00 00 00 00 00 00 00 00 00 00
       0.0 0.0 0.0 0.0
000040 00 00 00 00 00 00 00 00 00 00 00 00 00 00 00 00
       0.0 0.0 0.0 0.0
000050 00 00 00 00 00 00 00 00 00 00 00 00 00 00 00 00
       0.0 0.0 0.0 0.0
000060 00 00 00 00 00 00 00 00 00 00 00 00 00 00 00 00
       0.0 0.0 0.0 0.0
000070 00 00 00 00 00 00 00 00 00 00 00 00 00 00 00 00
       0.0 0.0 0.0 0.0
000080 00 00 00 00 00 00 00 00 00 00 00 00 00 00 00 00
       0.0 0.0 0.0 0.0
000090 00 00 00 00 00 00 00 00 00 00 00 00 00 00 00 00
       0.0 0.0 0.0 0.0
0000a0 00 00 00 00 00 00 00 00 00 00 00 00 00 00 00 00
       0.0 0.0 0.0 0.0
0000b0 00 00 00 00 00 00 00 00 00 00 00 00 00 00 00 00
       0.0 0.0 0.0 0.0
0000c0 00 00 00 00 00 00 00 00 00 00 00 00 00 00 00 00
       0.0 0.0 0.0 0.0
0000d0 00 00 00 00 00 00 00 00 00 00 00 00 00 00 00 00
       0.0 0.0 0.0 0.0
0000e0 00 00 00 00 00 00 00 00 00 00 00 00 00 00 00 00
       0.0 0.0 0.0 0.0
0000f0 00 00 00 00 00 00 00 00 00 00 00 00 00 00 00 00
       0.0 0.0 0.0 0.0

0.bn1.running_var f4 [64]
000000 00 00 80 3f 00 00 80 3f 00 00 80 3f 00 00 80 3f
       1.0 1.0 1.0 1.0
000010 00 00 80 3f 00 00 80 3f 00 00 80 3f 00 00 80 3f
       1.0 1.0 1.0 1.0
000020 00 00 80 3f 00 00 80 3f 00 00 80 3f 00 00 80 3f
       1.0 1.0 1.0 1.0
000030 00 00 80 3f 00 00 80 3f 00 00 80 3f 00 00 80 3f
       1.0 1.0 1.0 1.0
000040 00 00 80 3f 00 00 80 3f 00 00 80 3f 00 00 80 3f
       1.0 1.0 1.0 1.0
000050 00 00 80 3f 00 00 80 3f 00 00 80 3f 00 00 80 3f
       1.0 1.0 1.0 1.0
000060 00 00 80 3f 00 00 80 3f 00 00 80 3f 00 00 80 3f
       1.0 1.0 1.0 1.0
000070 00 00 80 3f 00 00 80 3f 00 00 80 3f 00 00 80 3f
       1.0 1.0 1.0 1.0
000080 00 00 80 3f 00 00 80 3f 00 00 80 3f 00 00 80 3f
       1.0 1.0 1.0 1.0
000090 00 00 80 3f 00 00 80 3f 00 00 80 3f 00 00 80 3f
       1.0 1.0 1.0 1.0
0000a0 00 00 80 3f 00 00 80 3f 00 00 80 3f 00 00 80 3f
       1.0 1.0 1.0 1.0
0000b0 00 00 80 3f 00 00 80 3f 00 00 80 3f 00 00 80 3f
       1.0 1.0 1.0 1.0
0000c0 00 00 80 3f 00 00 80 3f 00 00 80 3f 00 00 80 3f
       1.0 1.0 1.0 1.0
0000d0 00 00 80 3f 00 00 80 3f 00 00 80 3f 00 00 80 3f
       1.0 1.0 1.0 1.0
0000e0 00 00 80 3f 00 00 80 3f 00 00 80 3f 00 00 80 3f
       1.0 1.0 1.0 1.0
0000f0 00 00 80 3f 00 00 80 3f 00 00 80 3f 00 00 80 3f
       1.0 1.0 1.0 1.0

0.fc1.weight f4 [4, 64]
000000 14 39 e2 be 9d fb 47 be 87 c0 1a be db a6 80 be
       -0.44184172 -0.19529577 -0.15112506 -0.251273
000010 04 cf 9a bd 40 7d 2f be 24 a0 40 be 9a 46 7a be
       -0.07559016 -0.17137623 -0.18811089 -0.24440995
000020 31 ee ae be a6 26 39 bd 2d 30 08 be d1 d7 ad be
       -0.341661 -0.045202874 -0.13299628 -0.33953717
000030 c8 c3 4f bc 5a 55 0b 3d 5e 8b 9c bd 8a 24 a7 bd
       -0.012680955 0.034016944 -0.0764377 -0.08161266
000040 d9 da 46 be 8a 72 72 3e bf 9d 46 3f 07 c1 41 be
       -0.19419421 0.23676506 0.7758445 -0.1892129
000050 eb 6a 1f 3f c7 54 ff 3d 73 17 80 be cd 7e a6 bd
       0.6227252 0.12467342 -0.2501789 -0.08129654
000060 96 1e e2 3e c3 3e 8d 3f 0d 2e c0 3f b1 47 78 bf
       0.4416396 1.1034778 1.5014054 -0.9698439
000070 cd ea 27 3e 94 d3 a9 3d fd 2a ce bf 9e 9d ca bf
       0.16398163 0.082923084 -1.6106869 -1.5829351
000080 6e 3a df 3e b7 88 8b bf d1 6a cd 3f cd 06 92 3e
       0.43599266 -1.0901097 1.6048223 0.28520814
000090 5c 55 bd bd 54 b0 49 be 86 96 46 3f d5 a9 86 bd
       -0.09244797 -0.1969617 0.7757343 -0.06575362
0000a0 ce 82 9c be b2 0e f2 be 30 2c 1b bf 39 0e ff 3e
       -0.30568546 -0.47276837 -0.606143 0.4981554
0000b0 df 44 12 3e d8 62 cc bd 49 66 20 bc 3c 3c 78 bc
       0.14284085 -0.099797904 -0.009790012 -0.01515108
0000c0 e2 78 e4 3e 23 a3 6f be e1 71 a6 bb 2f 8a 96 bd
       0.44623476 -0.23402075 -0.0050794934 -0.07350575
0000d0 ba 6f 4c 3e 89 28 0b bb 55 18 d1 3b af a1 b3 3c
       0.19964495 -0.0021233878 0.0063810744 0.021927683
0000e0 5a 11 01 bf a1 12 8d 39 5e 3f 22 3d cc 42 17 bc
       -0.504171 0.00026907495 0.039611213 -0.009232234
0000f0 cf 2d 23 bb 19 c8 ad bb 47 ca 34 bb 5d f6 9a bc
       -0.002489913 -0.0053033945 -0.0027586387 -0.018916303
000100 83 c2 84 be ee f3 bd bd 1f 59 7d be 58 cc 1f be
       -0.2592965 -0.092750415 -0.24741028 -0.15605295
000110 d8 d4 01 be 03 27 33 bd 91 58 91 bd fc 9e 6f bd
       -0.1267885 -0.043738376 -0.07096971 -0.05850123
000120 5c 74 36 be be 00 2f be 12 67 34 be 33 e1 8d be
       -0.17817825 -0.17090127 -0.17617443 -0.27710876
000130 38 f6 1a be 2a c4 57 3d b1 31 1d be bb 5b c7 bd
       -0.15132987 0.05267731 -0.15350987 -0.09734293
000140 91 6d 80 be 31 03 cd 3e 52 50 35 3f e0 b2 a6 bd
       -0.25083593 0.40041497 0.70825684 -0.081395864
000150 b9 e9 25 3f 04 93 35 3e 1d b8 b1 bd ce 24 9d be
       0.6480976 0.17731863 -0.08677695 -0.30692142
000160 2b fb 88 3f 88 ed d4 3f 9c cd e6 be 9d d5 83 be
       1.070165 1.6634989 -0.45078743 -0.25748911
000170 b5 23 b0 be 57 e0 5a bf b4 20 56 3f c7 69 80 bf
       -0.34402242 -0.85498565 0.8364365 -1.0032281
000180 58 bc a6 3e 30 44 13 3f 8a a8 a3 bf 86 03 82 3e
       0.3256557 0.5752592 -1.2785809 0.25393313
000190 59 da 12 bd 98 41 12 3e a7 d2 39 bf e4 9d 37 be
       -0.035852764 0.14282835 -0.72587055 -0.17931324
0001a0 81 45 c3 be be 22 43 be ef f9 65 3e c6 3e e6 be
       -0.38138965 -0.19056222 0.22458623 -0.44969767
0001b0 da 58 d2 3d 9d 5b ef bd 3a 77 08 3d 8b 3c fc 3d
       0.10270853 -0.11687396 0.03331683 0.12316235
0001c0 2a 42 26 bf c9 2b cc 3c c1 cc ff 3b a9 7f 97 bd
       -0.6494471 0.024923222 0.007806391 -0.07397396
0001d0 7b 68 22 be c7 c2 60 3c 74 4b 14 bc 4a bc 9d 3b
       -0.15860169 0.013718314 -0.009051193 0.0048137056
0001e0 d2 16 74 be 55 91 bb 3a c9 e6 07 ba 5a df 16 bb
       -0.2383683 0.001431028 -0.0005184231 -0.0023021311
0001f0 40 cb f7 bb eb dd 86 3c 10 01 c0 3a 7c 37 36 bd
       -0.007562071 0.01646324 0.0014648754 -0.044486508
000200 82 58 15 3f 9c df ca bd c7 64 9d bd cc 2d 83 be
       0.5833818 -0.09905931 -0.076852374 -0.25620878
000210 d3 9a 8c be 96 d2 8b be f5 24 53 be 05 b4 6e be
       -0.27461872 -0.27309102 -0.20619567 -0.2331086
000220 77 86 ee be 6f f8 b2 bc 49 2e e1 bc a7 cf a8 be
       -0.46586964 -0.021846978 -0.02748789 -0.32970926
000230 d3 c0 b5 bd 47 68 9d bd 51 72 d6 bd 4b 16 05 be
       -0.08874669 -0.07685905 -0.10471023 -0.12996785
000240 ec f4 79 3d ef ba bb 3d de 93 35 3f 9c 33 d2 bd
       0.06102459 0.09166514 0.7092875 -0.1026375
000250 34 0c 29 3f 62 f1 04 3e ef 56 f5 bd 61 d4 83 bd
       0.66034245 0.12982705 -0.11979472 -0.064369924
000260 18 92 d2 bf f8 c0 81 3f 27 15 6d be da 11 05 bc
       -1.6450834 1.0137014 -0.231526 -0.008121932
000270 55 cf 31 3e 51 9b 01 3d 0c 95 12 bf f1 f9 57 3f
       0.17364247 0.031642262 -0.5725868 0.84365755
000280 2b d6 9e 3e bb 83 f4 3e bf 30 42 3e d7 91 1c 3d
       0.31022772 0.47756752 0.18963908 0.03822502
000290 ea 55 be bc 03 9a dc bd 29 97 b7 3e b0 80 12 be
       -0.023234326 -0.10771563 0.35857514 -0.14306903
0002a0 1a 08 1c 3f 6a f2 09 bf 4b 1e 57 be d6 ea 15 3d
       0.6094986 -0.5388552 -0.2100765 0.03660091
0002b0 99 dc 80 bb ce ed 6e 3c 8e 8d 81 3b 4f e3 d0 3b
       -0.0039325473 0.014583064 0.003953642 0.0063747535
0002c0 30 0c 17 3f b5 fa e8 bd 76 bb c2 3b 0c 18 d5 3b
       0.5900297 -0.113759436 0.0059427572 0.0065031108
0002d0 a4 a1 98 bc 19 fb 19 3d 37 54 40 bc c2 2d 52 bc
       -0.018631764 0.03759298 -0.011738828 -0.012828292
0002e0 fa 11 f6 be e5 ff 83 3c 50 35 b4 3b 92 fa bd bc
       -0.4806059 0.016113231 0.0054995194 -0.02319077
0002f0 d3 64 8e 3c 1c 43 91 3c af df 24 3c 6f 4e c4 bb
       0.017382061 0.017732196 0.010063096 -0.0059907953
000300 ed 6f b5 be 99 c7 39 be 88 b1 e9 bd 3f 57 2f be
       -0.35436955 -0.18142547 -0.114108145 -0.17123125
000310 dd fc 17 bc 41 2a 25 bd f4 3a 3f be d1 37 1f be
       -0.009276596 -0.0403235 -0.18674833 -0.15548636
000320 86 df fa 3d fb 37 3a be 82 be 7e be cb 37 bf 3d
       0.12249665 -0.18185417 -0.2487736 0.093368135
000330 42 30 ae be bd b1 85 be 0d 5f 6e be 04 85 71 be
       -0.34021193 -0.26112166 -0.23278446 -0.23585898
000340 31 a4 7c be 8a ce cf 3e ac e0 27 3f 94 bc ae 3d
       -0.24672009 0.40587264 0.655772 0.08532062
000350 3b ad 19 3f 6c 4d 59 3e 8a 55 01 be ca 80 9f be
       0.60029954 0.2122094 -0.12630287 -0.31152946
000360 32 d8 6a 3f 03 f8 c3 bf 19 49 d0 bf ce ab 22 3e
       0.9173614 -1.5310062 -1.6272308 0.15885851
000370 b9 dd 23 3e e7 d1 62 3f 7d b1 44 be b3 14 ad be
       0.16002549 0.88601536 -0.19208331 -0.33804855
000380 3f 64 19 bc 02 03 6c 3f 7d 86 b0 be 80 49 dc bd
       -0.009362279 0.9219209 -0.34477606 -0.107562065
000390 34 c2 6f bd fd a8 00 be 17 5e 86 3e 66 7e 47 3f
       -0.058534816 -0.12564464 0.2624366 0.77927244
0003a0 4c 7c db be f7 06 17 3f 0f 5f 22 3e a7 78 8a 3d
       -0.42868268 0.58995 0.15856574 0.06761294
0003b0 39 d5 51 38 e8 49 ca 3b f5 a7 b0 3b 04 79 a0 3d
       5.0028062e-05 0.006173361 0.005391116 0.07835582
0003c0 4f 29 e3 bc a9 e1 45 3d 7d f1 b4 b9 71 8e 15 3d
       -0.027729658 0.04831091 -0.00034512198 0.036512796
0003d0 47 49 05 3e d4 3e 0a 3b ec 0d 99 b9 36 bd c5 bc
       0.13016234 0.0021094577 -0.00029192807 -0.024138074
0003e0 93 37 d9 3d e5 c1 26 3b b2 a9 c3 ba 84 2a d5 bc
       0.10606303 0.002544516 -0.0014927892 -0.02602125
0003f0 62 98 61 bb 94 b8 55 3c ca 10 03 bc 14 f8 2c bd
       -0.0034423103 0.013044495 -0.007999608 -0.042228773

0.fc1.bias f4 [4]
000000 92 22 3f 3e b2 db 6c 3e 1d ec 51 3e 51 a8 93 3e
       0.18665531 0.23130682 0.20500226 0.28839353

1.weight f4 [6, 4]
000000 d8 3b fd 3d 08 a8 57 3e 40 5d 3e 3c 42 3e d4 3e
       0.1236493 0.21060193 0.011618912 0.4145375
000010 08 b2 cb bd c8 ef ac be 38 52 c6 3e 16 96 88 be
       -0.09946066 -0.3377669 0.38734603 -0.26677006
000020 40 99 3d be 44 46 e7 3e a0 24 f9 be 0a 6a a3 3e
       -0.18515491 0.45170796 -0.48660755 0.3191684
000030 8c 5d 5b 3e e6 3c d4 3e 34 78 f2 be f8 d9 88 3e
       0.21422404 0.41452712 -0.47357333 0.26728797
000040 7a 24 a9 3e 60 0e ac 3d 08 95 9b be 96 8d 83 3e
       0.33035642 0.08401179 -0.3038714 0.2569396
000050 74 05 91 3e 00 a5 ec 3c e6 d5 e8 3e f4 8a 19 3e
       0.28324473 0.028887272 0.45475692 0.14994413

1.bias f4 [6]
000000 6e 38 99 3e 7c 97 4c be 70 a5 bd bd f0 b8 0f 3d
       0.29925865 -0.19979662 -0.0926007 0.03508848
000010 90 f7 1b 3d 90 fb a7 be
       0.03807789 -0.32809114
