presentation/transfer_pong_bkout_cnn/cache_model_transfer_learning_ALE_Breakout-v5_from_pretrained_model_ALE_Pong-v5_DQN_CONV_10000.pth (torch, 9614 bytes, 9 tensors)

0.conv1.weight f4 [1, 1, 12, 12]
0	0x3c29b645	0.010358398
1	0x3d9b1546	0.07572417
2	0xbae723d0	-0.0017634574
3	0x3ae3bcbd	0.0017374974
4	0xbc9b5632	-0.018962
5	0xbbfbe248	-0.007686887
6	0x3c8d2428	0.017229155
7	0x3d93844c	0.07202968
8	0x3d2ef0e0	0.042710185
9	0xbc39c006	-0.011337286
10	0x3bc86716	0.0061158044
11	0xbd90cbac	-0.07070097
12	0x3c8161bb	0.015793672
13	0xbd970849	-0.07374627
14	0xbd098eae	-0.033583336
15	0x3d41c730	0.0473091
16	0xbc8d3494	-0.017236985
17	0x3be17b62	0.0068811635
18	0x3c5a9075	0.013340105
19	0xbd8c57d6	-0.06852691
20	0x3d737e9b	0.059446912
21	0xbdb08c89	-0.08620555
22	0x3c1c3b71	0.009535656
23	0x3d015371	0.031573717
24	0x3d937ea4	0.07201889
25	0x3d9383c4	0.07202867
26	0xbd065f37	-0.032805648
27	0x3d0bb3e0	0.03410709
28	0x3cb5773c	0.022151582
29	0xbcbef977	-0.023312313
30	0xbd903352	-0.070410386
31	0xbd714700	-0.0589056
32	0x3d286313	0.04111011
33	0x3d9350e1	0.07193161
34	0x3d210d0a	0.039319076
35	0xbc3de74a	-0.011590788
36	0xbd85877a	-0.06519981
37	0x3d7456b2	0.05965299
38	0x3d26ae5a	0.04069362
39	0x3d980a69	0.074238606
40	0x3cb991df	0.022652565
41	0xbcd25e80	-0.025679827
42	0xbda3180b	-0.0796357
43	0x3d5a0742	0.053229578
44	0xbd00b6be	-0.031424277
45	0xbdb0acdd	-0.08626721
46	0xbd6d3f8a	-0.057921924
47	0xbd00189c	-0.03127347
48	0xbc0b8085	-0.008514528
49	0xbceff2f1	-0.029290648
50	0x3d0c0102	0.03418065
51	0xbb1244a7	-0.0022318752
52	0xbcb08ed7	-0.021552486
53	0xbd93c626	-0.07215528
54	0xbd5df8b4	-0.05419226
55	0xbc9f6a74	-0.01945994
56	0xbd5c9dd8	-0.05386147
57	0x3ce2682d	0.027637566
58	0x3c3228b3	0.010873961
59	0x3d9b1450	0.07572234
60	0x3d945ec6	0.07244639
61	0x3c67852d	0.014130873
62	0x3d42cf14	0.047560766
63	0xbc76a2e9	-0.015053489
64	0xbd482b69	-0.048869524
65	0x3c7c0fa9	0.015384593
66	0xbd0d8441	-0.034549955
67	0xbc21a997	-0.0098670935
68	0x3d0899df	0.033349868
69	0x3cd946be	0.02652299
70	0xbc27a649	-0.010232517
71	0xbb5e4002	-0.0033912663
72	0x3d4efe92	0.050535746
73	0xbc879f11	-0.016555341
74	0xbd11ab7f	-0.035563942
75	0x3d78fa69	0.060785685
76	0xbc59d135	-0.013294508
77	0xbbd1ee9e	-0.006406619
78	0x3d5e4b0e	0.054270796
79	0xbc4cb32b	-0.012493889
80	0x3d8e4dae	0.0694841
81	0x3d8e2c6f	0.06942069
82	0x3d487e6e	0.048948698
83	0x3b8c51d9	0.004282218
84	0xbd99ca15	-0.07509247
85	0xbc52fd88	-0.012877829
86	0x3d859b3f	0.065237515
87	0x3d1045ee	0.03522294
88	0xbce25f0c	-0.027633213
89	0x3aeb0a08	0.0017932067
90	0xbca6bb2b	-0.02035292
91	0xbdadba3e	-0.084827885
92	0x3d19fdfd	0.037595738
93	0x3d1a5976	0.037682973
94	0xbb124e63	-0.0022324554
95	0xbc648132	-0.013946818
96	0x39e84c9e	0.00044307573
97	0x3c3ace7c	0.011401769
98	0xbd859db2	-0.065242186
99	0xbc3c2010	-0.011482254
100	0x3d995e7d	0.07488725
101	0xbcb7a30c	-0.022416614
102	0xbcb34370	-0.021882743
103	0x3bfefd7f	0.007781684
104	0xbd8f98e8	-0.070115864
105	0xbdb8db5f	-0.09026217
106	0xbd46e60f	-0.048559245
107	0xbd492ab8	-0.049113005
108	0x39ec4d48	0.00045071007
109	0xbb646305	-0.003484906
110	0xbda6a303	-0.08136561
111	0x3d15bfa9	0.036559734
112	0x3d875abb	0.06609102
113	0x3d19b2f9	0.037524197
114	0xbd742621	-0.059606675
115	0x3d4755e6	0.048665904
116	0xbd09f927	-0.033684876
117	0x3d821203	0.06351092
118	0x3d0e7507	0.034779575
119	0x3cf36c5c	0.029714756
120	0x3c5894a0	0.013219029
121	0x38fbad5c	0.000120009034
122	0xbd17f63f	-0.037100073
123	0x3c7a781f	0.015287428
124	0xbda4a6cb	-0.08039626
125	0x3cf72d94	0.0301731
126	0x3b6d2495	0.0036185135
127	0xbd7331c0	-0.059373617
128	0xbcfdadfa	-0.030966748
129	0x3d567e06	0.05236628
130	0x3d180728	0.0371162
131	0x3cdc2018	0.026870772
132	0xbccdb0dc	-0.025108747
133	0xbd8ebeb7	-0.0696997
134	0x3cfc882d	0.030826652
135	0x3c111ac1	0.008856476
136	0xbd2c5727	-0.042075302
137	0x3d9accad	0.0755857
138	0xbd579b3e	-0.052638285
139	0xbc09efea	-0.008419016
140	0x3d8f7cda	0.070062354
141	0x3d3b0e96	0.045668207
142	0xbc8408cf	-0.016117482
143	0xbbad0f66	-0.0052813767

0.bn1.weight f4 [64]
0	0x3f800000	1.0
1	0x3f800000	1.0
2	0x3f800000	1.0
3	0x3f800000	1.0
4	0x3f800000	1.0
5	0x3f800000	1.0
6	0x3f800000	1.0
7	0x3f800000	1.0
8	0x3f800000	1.0
9	0x3f800000	1.0
10	0x3f800000	1.0
11	0x3f800000	1.0
12	0x3f800000	1.0
13	0x3f800000	1.0
14	0x3f800000	1.0
15	0x3f800000	1.0
16	0x3f800000	1.0
17	0x3f800000	1.0
18	0x3f800000	1.0
19	0x3f800000	1.0
20	0x3f800000	1.0
21	0x3f800000	1.0
22	0x3f800000	1.0
23	0x3f800000	1.0
24	0x3f800000	1.0
25	0x3f800000	1.0
26	0x3f800000	1.0
27	0x3f800000	1.0
28	0x3f800000	1.0
29	0x3f800000	1.0
30	0x3f800000	1.0
31	0x3f800000	1.0
32	0x3f800000	1.0
33	0x3f800000	1.0
34	0x3f800000	1.0
35	0x3f800000	1.0
36	0x3f800000	1.0
37	0x3f800000	1.0
38	0x3f800000	1.0
39	0x3f800000	1.0
40	0x3f800000	1.0
41	0x3f800000	1.0
42	0x3f800000	1.0
43	0x3f800000	1.0
44	0x3f800000	1.0
45	0x3f800000	1.0
46	0x3f800000	1.0
47	0x3f800000	1.0
48	0x3f800000	1.0
49	0x3f800000	1.0
50	0x3f800000	1.0
51	0x3f800000	1.0
52	0x3f800000	1.0
53	0x3f800000	1.0
54	0x3f800000	1.0
55	0x3f800000	1.0
56	0x3f800000	1.0
57	0x3f800000	1.0
58	0x3f800000	1.0
59	0x3f800000	1.0
60	0x3f800000	1.0
61	0x3f800000	1.0
62	0x3f800000	1.0
63	0x3f800000	1.0

0.bn1.bias f4 [64]
0	0x00000000	0.0
1	0x00000000	0.0
2	0x00000000	0.0
3	0x00000000	0.0
4	0x00000000	0.0
5	0x00000000	0.0
6	0x00000000	0.0
7	0x00000000	0.0
8	0x00000000	0.0
9	0x00000000	0.0
10	0x00000000	0.0
11	0x00000000	0.0
12	0x00000000	0.0
13	0x00000000	0.0
14	0x00000000	0.0
15	0x00000000	0.0
16	0x00000000	0.0
17	0x00000000	0.0
18	0x00000000	0.0
19	0x00000000	0.0
20	0x00000000	0.0
21	0x00000000	0.0
22	0x00000000	0.0
23	0x00000000	0.0
24	0x00000000	0.0
25	0x00000000	0.0
26	0x00000000	0.0
27	0x00000000	0.0
28	0x00000000	0.0
29	0x00000000	0.0
30	0x00000000	0.0
31	0x00000000	0.0
32	0x00000000	0.0
33	0x00000000	0.0
34	0x00000000	0.0
35	0x00000000	0.0
36	0x00000000	0.0
37	0x00000000	0.0
38	0x00000000	0.0
39	0x00000000	0.0
40	0x00000000	0.0
41	0x00000000	0.0
42	0x00000000	0.0
43	0x00000000	0.0
44	0x00000000	0.0
45	0x00000000	0.0
46	0x00000000	0.0
47	0x00000000	0.0
48	0x00000000	0.0
49	0x00000000	0.0
50	0x00000000	0.0
51	0x00000000	0.0
52	0x00000000	0.0
53	0x00000000	0.0
54	0x00000000	0.0
55	0x00000000	0.0
56	0x00000000	0.0
57	0x00000000	0.0
58	0x00000000	0.0
59	0x00000000	0.0
60	0x00000000	0.0
61	0x00000000	0.0
62	0x00000000	0.0
63	0x00000000	0.0

0.bn1.running_mean f4 [64]
0	0x00000000	0.0
1	0x00000000	0.0
2	0x00000000	0.0
3	0x00000000	0.0
4	0x00000000	0.0
5	0x00000000	0.0
6	0x00000000	0.0
7	0x00000000	0.0
8	0x00000000	0.0
9	0x00000000	0.0
10	0x00000000	0.0
11	0x00000000	0.0
12	0x00000000	0.0
13	0x00000000	0.0
14	0x00000000	0.0
15	0x00000000	0.0
16	0x00000000	0.0
17	0x00000000	0.0
18	0x00000000	0.0
19	0x00000000	0.0
20	0x00000000	0.0
21	0x00000000	0.0
22	0x00000000	0.0
23	0x00000000	0.0
24	0x00000000	0.0
25	0x00000000	0.0
26	0x00000000	0.0
27	0x00000000	0.0
28	0x00000000	0.0
29	0x00000000	0.0
30	0x00000000	0.0
31	0x00000000	0.0
32	0x00000000	0.0
33	0x00000000	0.0
34	0x00000000	0.0
35	0x00000000	0.0
36	0x00000000	0.0
37	0x00000000	0.0
38	0x00000000	0.0
39	0x00000000	0.0
40	0x00000000	0.0
41	0x00000000	0.0
42	0x00000000	0.0
43	0x00000000	0.0
44	0x00000000	0.0
45	0x00000000	0.0
46	0x00000000	0.0
47	0x00000000	0.0
48	0x00000000	0.0
49	0x00000000	0.0
50	0x00000000	0.0
51	0x00000000	0.0
52	0x00000000	0.0
53	0x00000000	0.0
54	0x00000000	0.0
55	0x00000000	0.0
56	0x00000000	0.0
57	0x00000000	0.0
58	0x00000000	0.0
59	0x00000000	0.0
60	0x00000000	0.0
61	0x00000000	0.0
62	0x00000000	0.0
63	0x00000000	0.0

0.bn1.running_var f4 [64]
0	0x3f800000	1.0
1	0x3f800000	1.0
2	0x3f800000	1.0
3	0x3f800000	1.0
4	0x3f800000	1.0
5	0x3f800000	1.0
6	0x3f800000	1.0
7	0x3f800000	1.0
8	0x3f800000	1.0
9	0x3f800000	1.0
10	0x3f800000	1.0
11	0x3f800000	1.0
12	0x3f800000	1.0
13	0x3f800000	1.0
14	0x3f800000	1.0
15	0x3f800000	1.0
16	0x3f800000	1.0
17	0x3f800000	1.0
18	0x3f800000	1.0
19	0x3f800000	1.0
20	0x3f800000	1.0
21	0x3f800000	1.0
22	0x3f800000	1.0
23	0x3f800000	1.0
24	0x3f800000	1.0
25	0x3f800000	1.0
26	0x3f800000	1.0
27	0x3f800000	1.0
28	0x3f800000	1.0
29	0x3f800000	1.0
30	0x3f800000	1.0
31	0x3f800000	1.0
32	0x3f800000	1.0
33	0x3f800000	1.0
34	0x3f800000	1.0
35	0x3f800000	1.0
36	0x3f800000	1.0
37	0x3f800000	1.0
38	0x3f800000	1.0
39	0x3f800000	1.0
40	0x3f800000	1.0
41	0x3f800000	1.0
42	0x3f800000	1.0
43	0x3f800000	1.0
44	0x3f800000	1.0
45	0x3f800000	1.0
46	0x3f800000	1.0
47	0x3f800000	1.0
48	0x3f800000	1.0
49	0x3f800000	1.0
50	0x3f800000	1.0
51	0x3f800000	1.0
52	0x3f800000	1.0
53	0x3f800000	1.0
54	0x3f800000	1.0
55	0x3f800000	1.0
56	0x3f800000	1.0
57	0x3f800000	1.0
58	0x3f800000	1.0
59	0x3f800000	1.0
60	0x3f800000	1.0
61	0x3f800000	1.0
62	0x3f800000	1.0
63	0x3f800000	1.0

0.fc1.weight f4 [6, 64]
0	0xbdadba65	-0.084828176
1	0xbd949b64	-0.07256201
2	0x3da1ffcd	0.07910118
3	0xbdb8cb51	-0.090231545
4	0xbc730d1c	-0.0148346685
5	0xbc582507	-0.013192422
6	0xbd34dfdd	-0.044158805
7	0xbda4143c	-0.08011672
8	0x3ce1b269	0.027550893
9	0xbdda07ed	-0.10646043
10	0x3c5e8061	0.013580413
11	0x3d970cdb	0.07375499
12	0xbd1e6080	-0.03866625
13	0xbe05c601	-0.13063814
14	0x3d105643	0.035238516
15	0xbd9e7a38	-0.07738155
16	0x3cd446e0	0.025912702
17	0x3c7554c5	0.014973824
18	0xbd5b61e3	-0.05356015
19	0x3d96ea0b	0.07368859
20	0xbdd72d91	-0.10506738
21	0x3d135e35	0.035978515
22	0x3d035a83	0.03206874
23	0x3cf7baf7	0.030240519
24	0xbd4f6c6d	-0.050640512
25	0x3c9042f6	0.017610054
26	0x3d12e910	0.035866797
27	0x3d418817	0.047248926
28	0x3d1e21ba	0.038606383
29	0xbe02cab9	-0.12772645
30	0xbdfdb9fa	-0.12388988
31	0xbde736b3	-0.1128973
32	0x3b747b2e	0.0037304866
33	0x3de14160	0.109987974
34	0xbca7e121	-0.020493092
35	0x3cfa32df	0.030541835
36	0xbc5ce1a5	-0.013481532
37	0x3de4f0f1	0.111787684
38	0xbdb16061	-0.08660961
39	0xbe054960	-0.13016272
40	0x3cc3ec72	0.023916457
41	0x3d8ae9f9	0.06782908
42	0xbd15134c	-0.036395356
43	0x3d8d5815	0.06901566
44	0x3d9d6265	0.07684783
45	0x3d2b0101	0.041749004
46	0x3c589020	0.013217956
47	0x3d98eebf	0.07467412
48	0x3d756c14	0.059917524
49	0xbde8fb5f	-0.1137607
50	0xbcecbb34	-0.02889786
51	0x3da6a755	0.08137385
52	0x3db6ae7b	0.08919998
53	0x3bfc8ac7	0.0077069732
54	0x3dcada2d	0.09904895
55	0xbd11233a	-0.035433985
56	0x3dc442d3	0.09583058
57	0xbcb35494	-0.021890916
58	0x3d578c82	0.052624233
59	0xbc00914d	-0.007847142
60	0x3d6d92a8	0.05800119
61	0x3d14c2ba	0.03631852
62	0x3dca3559	0.098734565
63	0xbd848ff1	-0.06472767
64	0xbd7ba21e	-0.061433904
65	0xbb2fd703	-0.0026831038
66	0xbbeba4e8	-0.007191289
67	0x3da1cc60	0.079003096
68	0xbd96c50b	-0.07361802
69	0xbd519dc0	-0.051175833
70	0x3d850bb8	0.06496376
71	0x3d880ad3	0.066426896
72	0xbd8ccdfc	-0.06875226
73	0x3daabf56	0.08337276
74	0x3d74f06d	0.0597996
75	0xbd0bc62e	-0.034124546
76	0x3ddce7c4	0.10786393
77	0xbd829434	-0.06375924
78	0xbcf71621	-0.03016192
79	0x3b89ea20	0.004208818
80	0xbd6b78d8	-0.057488292
81	0x3c850222	0.016236369
82	0xbd3f9ccc	-0.046780393
83	0xbcf99eca	-0.030471224
84	0x3c0420f3	0.008064496
85	0xbd652b8c	-0.055949733
86	0x3b9708bc	0.0046091955
87	0x3bb7edfd	0.005613087
88	0xbc8dab1b	-0.017293504
89	0x3d9c743a	0.07639356
90	0xbd91c51e	-0.07117675
91	0xbd8385bb	-0.064219914
92	0xbdd4034a	-0.1035219
93	0xbda7d246	-0.08194403
94	0x3d4ba5da	0.049718715
95	0xbd8a678b	-0.067580305
96	0x3dac733a	0.08420415
97	0xbd0892cf	-0.033343133
98	0xbd3acca4	-0.045605317
99	0x3e03bb02	0.12864307
100	0xbb9b30d9	-0.0047360477
101	0x3dc4b7ac	0.09605345
102	0x3cdb3d64	0.026762672
103	0x3dca605c	0.0988166
104	0x3b863cd5	0.004096607
105	0x3d562861	0.052284602
106	0x3dfc7545	0.12327055
107	0xbda391f0	-0.0798682
108	0xbc750a70	-0.014956102
109	0xbd99c393	-0.07508006
110	0xbd558728	-0.05213085
111	0x3df4f021	0.119598635
112	0xbcc1bcb8	-0.023649558
113	0xbddf18ca	-0.108934
114	0x3df1f382	0.118140236
115	0xbdd0927e	-0.10184191
116	0xbcff264d	-0.031146193
117	0x3d9e9de6	0.077449605
118	0xbd577be4	-0.052608386
119	0xbd9a35d9	-0.07529802
120	0x3d099eed	0.03359883
121	0x3d4fc2db	0.050722938
122	0x3da21c62	0.0791557
123	0xbd7df590	-0.062001765
124	0x3db7f2ba	0.08981843
125	0xbb7f8a54	-0.0038992362
126	0xbd906688	-0.07050806
127	0xbd939584	-0.07206252
128	0xbdd6141b	-0.104530536
129	0xbd4acea2	-0.049513467
130	0xbdbd793f	-0.092516415
131	0xbccc03fb	-0.024904242
132	0xbbf39a52	-0.007434168
133	0x3d1b0628	0.037847668
134	0x3d6d771b	0.057974916
135	0x3dcffa7d	0.10155199
136	0xbb5c41dc	-0.0033608591
137	0xbd5a7f67	-0.053344157
138	0x3d1286e2	0.035773166
139	0x3cad6bcd	0.021169567
140	0xbdba1a33	-0.09087028
141	0x3c9352cc	0.017983817
142	0x3d631a16	0.0554448
143	0x3d8b72fe	0.068090424
144	0xbd62dea4	-0.055388108
145	0x3c86084a	0.016361374
146	0xbc631d60	-0.013861984
147	0xbdb8f949	-0.09031922
148	0x3cb0b2b9	0.021569597
149	0xbd101eb4	-0.03518553
150	0xbd9fe0c7	-0.07806545
151	0x3dc8c551	0.0980326
152	0xbda543a5	-0.08069543
153	0xbdbc4a31	-0.091938384
154	0xbd68b380	-0.05681181
155	0x3bce019c	0.006286813
156	0x3dd72241	0.1050458
157	0xbc86868c	-0.016421579
158	0xbda946b3	-0.08265438
159	0xbb8e0fa3	-0.00433536
160	0xbda9b477	-0.08286374
161	0xbdb2caa7	-0.08730059
162	0x3d93bb92	0.072135106
163	0xbd38b6d8	-0.04509625
164	0xbcb4bb49	-0.02206196
165	0x3aeb5e78	0.0017957231
166	0xbd0bd0c5	-0.034134645
167	0xbd5f2764	-0.054480925
168	0x3db34f9d	0.087554194
169	0x3d8fd069	0.07022173
170	0xbdc017f9	-0.093795724
171	0xbdb20395	-0.086920895
172	0x3a0f9c6b	0.0005478325
173	0x3dc03ee7	0.09386998
174	0x3c4a91ec	0.012363892
175	0xbda12a95	-0.0786945
176	0x3dd23657	0.10264271
177	0x3cc5a60a	0.024127025
178	0xbd124a5e	-0.035715453
179	0x3de60b7f	0.112326615
180	0x3d539aa5	0.051661152
181	0x3a934580	0.0011235923
182	0x3d15b4d9	0.036549423
183	0x3df6fbfb	0.1205978
184	0xbd65c062	-0.056091674
185	0x39b4390d	0.00034374782
186	0x3e11f735	0.14254458
187	0x3d743ba5	0.059627194
188	0xbd94a2ed	-0.07257638
189	0xbd434b3b	-0.047679167
190	0x3ce34946	0.0277449
191	0x3e073cba	0.13206759
192	0x3c8cbacf	0.017178921
193	0x3d36fcfc	0.04467486
194	0xbdb26ce4	-0.087121755
195	0x3df46b12	0.119344845
196	0xbd659c58	-0.056057304
197	0xbdeb39da	-0.11485644
198	0x3d2c2090	0.04202324
199	0x3dd79fdc	0.10528538
200	0xbd100918	-0.035164922
201	0x3cbf9250	0.023385197
202	0x3d431dd0	0.047635853
203	0xbdb22e26	-0.08700208
204	0xbd8a2896	-0.067460224
205	0xbd1c70df	-0.03819358
206	0xbd932335	-0.071844496
207	0x3de71988	0.112841666
208	0xbd0ce74f	-0.03440028
209	0x3c5735f6	0.013135424
210	0x3ce879fe	0.028378483
211	0x3d9597d8	0.073043525
212	0x3cf7658f	0.030199794
213	0xbd7f0fc6	-0.062270902
214	0xbc5df37e	-0.013546823
215	0xbdaeb6e4	-0.08530977
216	0xbd9f6448	-0.07782799
217	0x3d7059fb	0.058679562
218	0x3da95472	0.0826806
219	0x3c9cd688	0.019145265
220	0x3d23871c	0.039923772
221	0xbbe08465	-0.00685172
222	0xbcc229aa	-0.023701508
223	0xbd4afbd8	-0.049556583
224	0xbd9d1b66	-0.076712415
225	0xbc4abdad	-0.012374324
226	0x3d620eb9	0.055189822
227	0xbb3dce7e	-0.002896219
228	0xbc706960	-0.014673561
229	0x3dd7f09e	0.10543941
230	0xbc09d139	-0.008411699
231	0xb9b26d0c	-0.00034032052
232	0x3df156e0	0.11784148
233	0xbdf18ae4	-0.117940694
234	0xbd34700c	-0.04405217
235	0xbdd61722	-0.10453631
236	0x3d2a6c78	0.04160735
237	0x3d814133	0.06311264
238	0x3ddc6408	0.10761267
239	0xbddcce3c	-0.107815236
240	0x3dd39f20	0.10333085
241	0xbd0c5c02	-0.034267433
242	0xbc4331ad	-0.011913699
243	0xbdadf4e4	-0.08493975
244	0x3dabb26c	0.08383641
245	0x3c918a22	0.017766062
246	0x3d0cb5e7	0.034353163
247	0xbd9cd41e	-0.07657646
248	0xbcdee076	-0.02720664
249	0x3cc5c060	0.024139583
250	0xbda61dbe	-0.081111416
251	0x3abadd45	0.0014256617
252	0x3d5e0d48	0.054211885
253	0xbd37f85c	-0.04491459
254	0xbc6574ef	-0.01400493
255	0x3dc9cb9a	0.09853287

0.fc1.bias f4 [6]
0	0xbff82d60	-1.9388847
1	0xbff84001	-1.9394532
2	0xbff87806	-1.9411628
3	0xbff833de	-1.9390829
4	0xbff838f1	-1.9392377
5	0xbff8afbb	-1.9428629

1.weight f4 [4, 6]
0	0x3d0907e9	0.03345481
1	0xbdcb2842	-0.09919788
2	0x3e471123	0.19440131
3	0x3d7fb1d2	0.062425442
4	0x3ea44b35	0.32088628
5	0xbdf916ad	-0.12162528
6	0x3eba1102	0.363411
7	0x3ea2df31	0.31810907
8	0x3dba38bd	0.09092853
9	0xbe6134ea	-0.21992841
10	0x3e5efaa8	0.21775305
11	0x3eaeb0c2	0.3411923
12	0xbe5ad754	-0.21371204
13	0x3e909ea9	0.28246048
14	0x3e0cacbb	0.13737766
15	0x3e38ce6e	0.18047497
16	0x3ea3b445	0.31973472
17	0x3d91d1cb	0.07120093
18	0xbe104878	-0.14090145
19	0xbd79cf06	-0.06098845
20	0x3ec88017	0.39160225
21	0x3ec89247	0.391741
22	0xbd2ba5db	-0.04190622
23	0x3ec9e29a	0.39430696

1.bias f4 [4]
0	0x3e0fe09f	0.1405053
1	0xbe7ae682	-0.24501994
2	0xbe8454f4	-0.25846064
3	0x3e1a9d5b	0.15099089
