pretrained_model_ALE_Breakout-v5_DQN_CONV.pth (torch, 7937 bytes, 7 tensors)

weight f4 [1, 1, 12, 12]
0.07821711 -0.0938439 0.039839003 -0.2226525 0.012115194 -0.09737385 0.085794635 0.10361346
-0.026043443 -0.011919202 0.07851744 0.04231128 0.06590309 -0.013194655 -0.03875744 0.45621428
-0.047032095 -0.17590386 -0.02505004 0.12909374 0.015987627 -0.07677651 -0.044873524 0.0039034192
-0.033158597 -0.0537105 -0.081618875 0.5459908 0.21867593 -0.0051277503 -0.48046324 -0.04096276
-0.05153498 0.1569914 -0.032011494 -0.008641112 -0.055301756 -0.07256316 -0.13163674 0.30129638
0.043629915 0.34085327 -0.20787592 -1.0026076 0.055418137 -0.010518199 0.04425159 0.047916062
-0.012901063 0.307819 -0.18410419 -0.24507533 0.07241476 -0.42396447 0.2071814 0.9974042
0.36887142 0.020722056 -0.28374213 0.045162044 -0.103944644 0.28112122 -0.06971401 0.113634855
-0.11498132 -0.26487663 -0.15922643 1.3942723 0.11638287 -0.010184703 -0.21331178 -0.1399735
-0.007432952 0.005382029 -0.03258859 0.021811182 -0.0392063 0.088964835 0.03903577 -0.60778254
-0.08049192 0.018697314 0.0025975103 0.027224675 -0.056556806 -0.03967139 -0.03768174 0.009755359
-0.20465401 -0.09240494 -0.1714754 0.1404531 0.08177368 0.001406346 -0.028818779 -0.025385719
0.039997425 -0.056255426 -0.038377978 -0.052719876 0.014407628 0.025016552 0.045365363 0.0065129795
-0.09320105 0.0054207225 -0.010756992 -0.007887149 -0.07096873 -0.049115684 0.0030365372 -0.064781286
-0.023323564 0.09464491 -0.023771787 -0.007457242 0.076960504 -0.0018556372 0.017431304 0.015442408
-0.055872045 -0.00015269083 -0.044315897 0.03326139 0.056060866 -0.08932948 0.0040779724 0.0005733927
-0.04143086 -0.02482626 -0.0067643872 0.024914576 0.0048423647 -0.08048836 -0.017340582 -0.03476307
0.051289 0.15539475 -0.024838079 -0.05717491 0.00010217613 0.002829223 0.033599634 0.006531652
00000000: 4b30 a03d 3b31 c0bd 392e 233d 04ff 63be
00000010: cf7e 463c f16b c7bd 19b5 af3d 4b33 d43d
00000020: 0f59 d5bc c248 43bc c0cd a03d 984e 2d3d
00000030: 33f8 863d 652e 58bc 1fc0 1ebd eb94 e93e
00000040: baa4 40bd 2420 34be be35 cdbc 2631 043e
00000050: 7cf8 823c 013d 9dbd 4dcd 37bd 82d0 7f3b
00000060: 4fd1 07bd 8bff 5bbd cc27 a7bd 0ec6 0b3f
00000070: 95ec 5f3e b006 a8bb 47ff f5be 91c8 27bd
00000080: 5816 53bd 5bc2 203e 7c1e 03bd 7393 0dbc
00000090: 1884 62bd fe9b 94bd c8cb 06be 8543 9a3e
000000a0: 48b5 323d 5284 ae3e 6ddd 54be 7255 80bf
000000b0: 21fe 623d 8654 2cbc 2841 353d a243 443d
000000c0: fb5e 53bc 749a 9d3e cf85 3cbe 07f5 7abe
000000d0: 314e 943d df11 d9be 5c27 543e e255 7f3f
000000e0: b7dc bc3e 4dc1 a93c a646 91be d6fb 383d
000000f0: eee0 d4bd 1fef 8f3e 38c6 8ebd 64b9 e83d
00000100: 547b ebbd e99d 87be 410c 23be 8477 b23f
00000110: 245a ee3d bedd 26bc 676e 5abe 3755 0fbe
00000120: 1f90 f3bb bb5b b03b 9d7b 05bd 5dad b23c
00000130: c996 20bd 3233 b63d f9e3 1f3d a397 1bbf
00000140: f3d8 a4bd 1c2b 993c fe3a 2a3b 4806 df3c
00000150: 1ca8 67bd 787e 22bd 2b58 1abd f1d4 1f3c
00000160: d290 51be cd3e bdbd 3f97 2fbe f0d2 0f3e
00000170: f678 a73d 2455 b83a 5c15 ecbc b6f5 cfbc
00000180: 57d4 233d 176c 66bd 3a32 1dbd ccf0 57bd
00000190: f90d 6c3c 83ef cc3c 08d1 393d d56a d53b
000001a0: 31e0 bebd 51a0 b13b 183e 30bc 1a39 01bc
000001b0: 0e58 91bd 872d 49bd a400 473b 0dac 84bd
000001c0: 0f11 bfbc 31d5 c13d 0dbd c2bc e15b f4bb
000001d0: 789d 9d3d da38 f3ba 18cc 8e3c 2702 7d3c
000001e0: 16da 64bd a21b 20b9 9684 35bd 183d 083d
000001f0: 14a0 653d 60f2 b6bd 83a0 853b bc4f 163a
00000200: 68b3 29bd 7160 cbbc cba7 ddbb a719 cc3c
00000210: b3ac 9e3b 15d7 a4bd d60d 8ebc b963 0ebd
00000220: 6a14 523d cd1f 1f3e 3a79 cbbc 3d30 6abd
00000230: 6447 d638 7c6a 393b c59f 093d 7807 d63b

weight f4 [64]
1.0 1.0 1.0 1.0 1.0 1.0 1.0 1.0
1.0 1.0 1.0 1.0 1.0 1.0 1.0 1.0
1.0 1.0 1.0 1.0 1.0 1.0 1.0 1.0
1.0 1.0 1.0 1.0 1.0 1.0 1.0 1.0
1.0 1.0 1.0 1.0 1.0 1.0 1.0 1.0
1.0 1.0 1.0 1.0 1.0 1.0 1.0 1.0
1.0 1.0 1.0 1.0 1.0 1.0 1.0 1.0
1.0 1.0 1.0 1.0 1.0 1.0 1.0 1.0
00000000: 0000 803f 0000 803f 0000 803f 0000 803f
00000010: 0000 803f 0000 803f 0000 803f 0000 803f
00000020: 0000 803f 0000 803f 0000 803f 0000 803f
00000030: 0000 803f 0000 803f 0000 803f 0000 803f
00000040: 0000 803f 0000 803f 0000 803f 0000 803f
00000050: 0000 803f 0000 803f 0000 803f 0000 803f
00000060: 0000 803f 0000 803f 0000 803f 0000 803f
00000070: 0000 803f 0000 803f 0000 803f 0000 803f
00000080: 0000 803f 0000 803f 0000 803f 0000 803f
00000090: 0000 803f 0000 803f 0000 803f 0000 803f
000000a0: 0000 803f 0000 803f 0000 803f 0000 803f
000000b0: 0000 803f 0000 803f 0000 803f 0000 803f
000000c0: 0000 803f 0000 803f 0000 803f 0000 803f
000000d0: 0000 803f 0000 803f 0000 803f 0000 803f
000000e0: 0000 803f 0000 803f 0000 803f 0000 803f
000000f0: 0000 803f 0000 803f 0000 803f 0000 803f

bias f4 [64]
0.0 0.0 0.0 0.0 0.0 0.0 0.0 0.0
0.0 0.0 0.0 0.0 0.0 0.0 0.0 0.0
0.0 0.0 0.0 0.0 0.0 0.0 0.0 0.0
0.0 0.0 0.0 0.0 0.0 0.0 0.0 0.0
0.0 0.0 0.0 0.0 0.0 0.0 0.0 0.0
0.0 0.0 0.0 0.0 0.0 0.0 0.0 0.0
0.0 0.0 0.0 0.0 0.0 0.0 0.0 0.0
0.0 0.0 0.0 0.0 0.0 0.0 0.0 0.0
00000000: 0000 0000 0000 0000 0000 0000 0000 0000
00000010: 0000 0000 0000 0000 0000 0000 0000 0000
00000020: 0000 0000 0000 0000 0000 0000 0000 0000
00000030: 0000 0000 0000 0000 0000 0000 0000 0000
00000040: 0000 0000 0000 0000 0000 0000 0000 0000
00000050: 0000 0000 0000 0000 0000 0000 0000 0000
00000060: 0000 0000 0000 0000 0000 0000 0000 0000
00000070: 0000 0000 0000 0000 0000 0000 0000 0000
00000080: 0000 0000 0000 0000 0000 0000 0000 0000
00000090: 0000 0000 0000 0000 0000 0000 0000 0000
000000a0: 0000 0000 0000 0000 0000 0000 0000 0000
000000b0: 0000 0000 0000 0000 0000 0000 0000 0000
000000c0: 0000 0000 0000 0000 0000 0000 0000 0000
000000d0: 0000 0000 0000 0000 0000 0000 0000 0000
000000e0: 0000 0000 0000 0000 0000 0000 0000 0000
000000f0: 0000 0000 0000 0000 0000 0000 0000 0000

running_mean f4 [64]
0.0 0.0 0.0 0.0 0.0 0.0 0.0 0.0
0.0 0.0 0.0 0.0 0.0 0.0 0.0 0.0
0.0 0.0 0.0 0.0 0.0 0.0 0.0 0.0
0.0 0.0 0.0 0.0 0.0 0.0 0.0 0.0
0.0 0.0 0.0 0.0 0.0 0.0 0.0 0.0
0.0 0.0 0.0 0.0 0.0 0.0 0.0 0.0
0.0 0.0 0.0 0.0 0.0 0.0 0.0 0.0
0.0 0.0 0.0 0.0 0.0 0.0 0.0 0.0
00000000: 0000 0000 0000 0000 0000 0000 0000 0000
00000010: 0000 0000 0000 0000 0000 0000 0000 0000
00000020: 0000 0000 0000 0000 0000 0000 0000 0000
00000030: 0000 0000 0000 0000 0000 0000 0000 0000
00000040: 0000 0000 0000 0000 0000 0000 0000 0000
00000050: 0000 0000 0000 0000 0000 0000 0000 0000
00000060: 0000 0000 0000 0000 0000 0000 0000 0000
00000070: 0000 0000 0000 0000 0000 0000 0000 0000
00000080: 0000 0000 0000 0000 0000 0000 0000 0000
00000090: 0000 0000 0000 0000 0000 0000 0000 0000
000000a0: 0000 0000 0000 0000 0000 0000 0000 0000
000000b0: 0000 0000 0000 0000 0000 0000 0000 0000
000000c0: 0000 0000 0000 0000 0000 0000 0000 0000
000000d0: 0000 0000 0000 0000 0000 0000 0000 0000
000000e0: 0000 0000 0000 0000 0000 0000 0000 0000
000000f0: 0000 0000 0000 0000 0000 0000 0000 0000

running_var f4 [64]
1.0 1.0 1.0 1.0 1.0 1.0 1.0 1.0
1.0 1.0 1.0 1.0 1.0 1.0 1.0 1.0
1.0 1.0 1.0 1.0 1.0 1.0 1.0 1.0
1.0 1.0 1.0 1.0 1.0 1.0 1.0 1.0
1.0 1.0 1.0 1.0 1.0 1.0 1.0 1.0
1.0 1.0 1.0 1.0 1.0 1.0 1.0 1.0
1.0 1.0 1.0 1.0 1.0 1.0 1.0 1.0
1.0 1.0 1.0 1.0 1.0 1.0 1.0 1.0
00000000: 0000 803f 0000 803f 0000 803f 0000 803f
00000010: 0000 803f 0000 803f 0000 803f 0000 803f
00000020: 0000 803f 0000 803f 0000 803f 0000 803f
00000030: 0000 803f 0000 803f 0000 803f 0000 803f
00000040: 0000 803f 0000 803f 0000 803f 0000 803f
00000050: 0000 803f 0000 803f 0000 803f 0000 803f
00000060: 0000 803f 0000 803f 0000 803f 0000 803f
00000070: 0000 803f 0000 803f 0000 803f 0000 803f
00000080: 0000 803f 0000 803f 0000 803f 0000 803f
00000090: 0000 803f 0000 803f 0000 803f 0000 803f
000000a0: 0000 803f 0000 803f 0000 803f 0000 803f
000000b0: 0000 803f 0000 803f 0000 803f 0000 803f
000000c0: 0000 803f 0000 803f 0000 803f 0000 803f
000000d0: 0000 803f 0000 803f 0000 803f 0000 803f
000000e0: 0000 803f 0000 803f 0000 803f 0000 803f
000000f0: 0000 803f 0000 803f 0000 803f 0000 803f

weight f4 [4, 64]
0.1570952 0.08749867 0.08766603 0.11615155 -0.024068763 0.0032694675 0.096287854 0.11277156
0.11285864 -0.09323062 0.03060027 0.006102845 -0.19071616 -0.052616093 -0.1476555 -0.049828935
0.097569376 -0.012925729 0.026004491 -0.04382775 0.26558596 -0.00059560983 0.075142674 0.009758495
-1.359133 -0.0382458 -0.671673 0.5934508 0.38207644 0.4060756 -0.10554589 0.14135948
0.23676015 0.0160865 0.02223518 -0.015152628 0.016543401 -0.016974656 0.0017628935 0.004839499
0.20171298 -0.005419647 0.028070318 -0.0013218197 0.0031191465 0.01732098 -0.005422206 -0.0008127738
0.026648035 0.0072261547 0.019346477 0.041184247 -0.0030209527 0.017800322 -0.00018127417 -0.013029669
0.0303649 -0.00078349415 -0.0027346474 -0.0035369939 0.008053785 -0.007961451 -0.0012867764 -7.2579205e-05
0.027570007 0.10793418 0.09590475 0.08309725 -0.058857195 0.090564966 0.052215476 -0.04843997
0.107773535 -0.14320296 -0.0646111 -0.027398633 -0.016181773 -0.1138327 -0.04731109 -0.14629537
0.09707325 -0.012902595 0.02580713 -0.041865114 0.26565215 -0.025903864 0.08941379 0.007131479
-1.3603233 -0.03633856 -0.66568583 0.59564275 0.38134897 0.28204218 -0.15150434 0.12958282
0.31740892 0.015955908 0.02109525 -0.0159794 0.005075664 -0.013546071 -0.00739323 -0.010735895
0.16258192 -0.005226248 0.024891151 -0.0011301758 0.0034869665 0.014796819 -0.008377155 -0.0015946655
0.022988912 0.0065975836 0.019006008 0.04020402 -0.0038385808 0.017525848 -0.0001534826 0.00052358746
0.028117985 -0.0005756427 -0.004477657 -0.00072952325 0.006720237 -0.00883625 -0.0013403571 -0.0023215003
0.124409735 0.020105876 0.008277839 -0.049225606 0.029188719 0.09235534 -0.015952855 -0.004651043
-0.035855256 -0.10429708 -0.0005753347 -0.028405277 0.040696073 -0.11579593 -0.07800335 -0.03039337
0.096442096 -0.015540259 0.025439778 -0.042204827 0.2667284 -0.004284057 0.07598081 -0.007937192
-1.3629435 -0.0554037 -0.66444784 0.5958548 0.38150448 0.4023514 -0.026016824 0.10087943
0.26543656 0.014231847 0.02090504 -0.016213786 0.011913957 -0.019763067 -0.00029241215 -0.0052823764
0.23537464 -0.005253285 0.024462273 -0.0012522821 0.0031318613 0.014372515 -0.008910447 -0.0017844164
0.016745953 0.0057278555 0.019059509 0.040195107 -0.003737349 0.017596774 -0.00034063723 0.00020889398
0.025205186 -0.00071918924 -0.004534904 -0.0016075774 0.005045518 -0.008783688 -0.0014283659 -0.0023414602
0.140064 -0.008277403 -0.043695085 0.024275444 0.062694326 0.11379248 0.13919377 0.13738915
-0.09103059 -0.063550994 -0.15206124 0.04001109 0.016885266 -0.011946261 -0.023203883 -0.09520296
0.09793621 -0.011489632 0.02720864 -0.043803405 0.26543516 -0.01380936 0.08495571 0.0002471677
-1.3608645 -0.024718681 -0.67250764 0.5928543 0.3816599 0.34941328 -0.022668568 0.11504547
0.27159032 0.015987698 0.022169223 -0.015218398 0.014156428 -0.015243607 -0.0023093056 -0.003935519
0.2183445 -0.0053904853 0.027044145 -0.0012128763 0.003250383 0.015620589 -0.0072224345 -0.0014405751
0.022877553 0.0064523076 0.019329749 0.04065707 -0.003390384 0.0177749 -9.941032e-05 -0.012984527
0.028571608 -0.00073605793 -0.0034169366 -0.00038190113 0.00054625 -0.008636399 -0.001235993 -0.0011768327
00000000: 90dd 203e 8132 b33d 3f8a b33d dde0 ed3d
00000010: db2b c5bc 9044 563b 9132 c53d c7f4 e63d
00000020: 6e22 e73d b2ef bebd 6bad fa3c 60fa c73b
00000030: 194b 43be f983 57bd 0133 17be 6d19 4cbd
00000040: 74d2 c73d 70c6 53bc 5f07 d53c ba84 33bd
00000050: e2fa 873e b322 1cba 67e4 993d 18e2 1f3c
00000060: 12f8 adbf a1a7 1cbd c3f2 2bbf 64ec 173f
00000070: 869f c33e 24e9 cf3e 7228 d8bd 8ac0 103e
00000080: 4171 723e d6c7 833c 8d26 b63c ba42 78bc
00000090: 0786 873c 6f0e 8bbc e410 e73a a994 9e3b
000000a0: d98d 4e3e 4b97 b1bb b9f3 e53c e940 adba
000000b0: 986a 4c3b bae4 8d3c c3ac b1bb 5410 55ba
000000c0: fb4c da3c 61c9 ec3b 817c 9e3c d0b0 283d
000000d0: 2dfb 45bb fbd1 913c 6a14 3eb9 657a 55bc
000000e0: d0bf f83c 6763 4dba c537 33bb e9cc 67bb
000000f0: 06f4 033c bf70 02bc 0da9 a8ba aa35 98b8
00000100: 7fda e13c 980c dd3d b669 c43d e42e aa3d
00000110: 3e14 71bd 207a b93d e5df 553d fd68 46bd
00000120: 5fb8 dc3d cca3 12be d352 84bd 1973 e0bc
00000130: a38f 84bc 1e21 e9bd 46c9 41bd 74ce 15be
00000140: 57ce c63d 6865 53bc 7969 d33c c17a 2bbd
00000150: 8f03 883e 5734 d4bc 941e b73d 2faf e93b
00000160: 131f aebf bed7 14bd 636a 2abf 0b7c 183f
00000170: 2c40 c33e d567 903e f423 1bbe 5cb1 043e
00000180: 6c83 a23e f7b5 823c f2cf ac3c 3be7 82bc
00000190: c151 a63b 57f0 5dbc e942 f2bb 9be5 2fbc
000001a0: e07b 263e f240 abbb 87e8 cb3c 6822 94ba
000001b0: 9785 643b 5b6e 723c 5640 09bc 1804 d1ba
000001c0: 3e53 bc3c 8b30 d83b 7db2 9b3c f8ac 243d
000001d0: b390 7bbb 5e92 8f3c 2cf0 20b9 5c41 093a
000001e0: b057 e63c bae6 16ba 4fb9 92bb 7a3d 3fba
000001f0: 6f35 dc3b ebc5 10bc ecae afba 5024 18bb
00000200: 88ca fe3d 14b5 a43c c69f 073c caa0 49bd
00000210: 2e1d ef3c cc24 bd3d 90af 82bc c767 98bb
00000220: f6dc 12bd b599 d5bd 0fd2 16ba 2fb2 e8bc
00000230: edb0 263d 6b26 edbd 38c0 9fbd 84fb f8bc
00000240: 6f83 c53d 929c 7ebc 1567 d03c f8de 2cbd
00000250: a090 883e 4661 8cbb d49b 9b3d ff0a 02bc
00000260: ef74 aebf fdee 62bd 4119 2abf f189 183f
00000270: 8e54 c33e 0101 ce3e 3c21 d5bc e099 ce3d
00000280: 4de7 873e b12c 693c 0c41 ab3c c6d2 84bc
00000290: c232 433c 28e6 a1bc e54e 99b9 c917 adbb
000002a0: 0d06 713e c023 acbb 1b65 c83c 9d23 a4ba
000002b0: ea3f 4d3b b27a 6b3c 20fd 11bc 14e3 e9ba
000002c0: cf2e 893c bcb0 bb3b b022 9c3c a0a3 243d
000002d0: 50ee 74bb 1c27 903c 8e97 b2b9 8d0a 5b39
000002e0: 1b7b ce3c f987 3cba 8899 94bb 59b5 d2ba
000002f0: df54 a53b 75e9 0fbc 0238 bbba 2f73 19bb
00000300: f06c 0f3e f29d 07bc 9ef9 32bd 4cdd c63c
00000310: e265 803d 080c e93d d088 0e3e beaf 0c3e
00000320: 3f6e babd 0627 82bd f1b5 1bbe abe2 233d
00000330: f852 8a3c 40ba 43bc 1216 bebc c5f9 c2bd
00000340: c892 c83d 023f 3cbc a7e4 de3c 336b 33bd
00000350: 1ee7 873e a740 62bc 42fd ad3d 4a96 8139
00000360: cf30 aebf d57e cabc 7629 2cbf 4dc5 173f
00000370: ed68 c33e 4ce6 b23e 6fb3 b9bc f69c eb3d
00000380: e30d 8b3e a2f8 823c 3b9c b53c 9656 79bc
00000390: 5df0 673c 52c0 79bc b857 17bb 87f5 80bb
000003a0: b395 5f3e aba2 b0bb af8b dd3c 60f9 9eba
000003b0: 6104 553b 80ed 7f3c 2caa ecbb aed1 bcba
000003c0: b569 bb3c e16d d33b 6c59 9e3c 0788 263d
000003d0: 3431 5ebb ab9c 913c 827a d0b8 0ebd 54bc
000003e0: 010f ea3c 03f4 40ba afee 5fbb e739 c8b9
000003f0: 3832 0f3a af7f 0dbc 0b01 a2ba f43f 9aba

bias f4 [4]
-0.04171886 0.063712426 0.032816723 0.015129104
00000000: 65e1 2abd a97b 823d d46a 063d 10e0 773c
