presentation/pretrained_model_ALE_Breakout-v5_DQN_CONV_1000.pth (torch, 7992 bytes, 7 tensors)

weight f4 [1, 1, 12, 12]
0	0x3d8a11dd	0.067416884
1	0x3de175ac	0.11008772
2	0xbd3eee9b	-0.04661427
3	0xbdbe4135	-0.09289781
4	0x3d3295e1	0.043599967
5	0xbe08ea0b	-0.1337053
6	0xb95c5489	-0.00021012327
7	0xbc6fbc52	-0.014632301
8	0xbdafbb9b	-0.08580705
9	0x3d506319	0.050875757
10	0xbcc29a96	-0.023755353
11	0xbd6459f3	-0.055749845
12	0x3c9977e6	0.01873393
13	0xbc56d5a2	-0.0131124575
14	0xbd2ff507	-0.042958286
15	0x3e02dd79	0.12779798
16	0xbd71663c	-0.05893539
17	0xbbfeabbd	-0.0077719376
18	0xbcb9251f	-0.022600709
19	0xbd246434	-0.040134624
20	0xbcf3452d	-0.029696072
21	0x3a9a4515	0.0011769856
22	0x3d197f0e	0.037474684
23	0xbd2b7203	-0.041856777
24	0xbc21a0cf	-0.009865
25	0x3d273aa1	0.040827397
26	0xbd783e99	-0.060606573
27	0x3e7a7c42	0.24461463
28	0xbda8135e	-0.08206819
29	0x3dd78e2d	0.10525165
30	0xbc8465d9	-0.016161846
31	0x3d2f07a5	0.0427319
32	0xbce85c1d	-0.028364236
33	0xbdc2837b	-0.09497734
34	0xbd4f8a3e	-0.050668947
35	0x3a846e70	0.0010103714
36	0xbe66b832	-0.22531202
37	0x3c3b083c	0.011415537
38	0xbe04ba4d	-0.12961693
39	0x3ee770aa	0.45203143
40	0xbc57b23f	-0.013165056
41	0x3e0e77bb	0.13912861
42	0xbc59bcf1	-0.013289676
43	0x3e37b9d2	0.17941979
44	0x3d417e85	0.0472398
45	0x3cc8a924	0.024494715
46	0xbe06608a	-0.13122764
47	0x3c409005	0.011753087
48	0xbe8468cd	-0.25861207
49	0x3e2e00ee	0.16992542
50	0xbe101be8	-0.14073145
51	0xbe8cc229	-0.27491882
52	0xbe533052	-0.20623901
53	0x3d70385b	0.058647495
54	0x3d78595a	0.060632087
55	0xbf5c09fd	-0.8595274
56	0x3db4af89	0.08822543
57	0xbc2b0d48	-0.010440178
58	0xbe37567a	-0.17904082
59	0xb9468220	-0.00018931227
60	0xbd563129	-0.052292977
61	0x3f178320	0.59184456
62	0x3d390283	0.04516841
63	0x3e0803b7	0.13282667
64	0xbee319b7	-0.44355556
65	0x3ef56198	0.4792602
66	0x3ea27958	0.31733203
67	0xbf65ebec	-0.89813113
68	0x3ee10e17	0.43956062
69	0xbdb643f8	-0.08899683
70	0xbe81b226	-0.2533123
71	0xbcb92369	-0.022599893
72	0x3ca41fdc	0.020034723
73	0x3e59f123	0.21283393
74	0x3c867b62	0.016416255
75	0xbd2018f1	-0.039086286
76	0xbe070c69	-0.13188328
77	0x3f4c0d7d	0.7970808
78	0x3eaeecf9	0.3416517
79	0x3e32b406	0.17451486
80	0x3ea2ecef	0.3182139
81	0xbcc70152	-0.024292622
82	0xbe4f0cd9	-0.20219745
83	0xbcaa1ef8	-0.02076672
84	0x3d2ef7d6	0.042716824
85	0xbc3ba3e1	-0.011452646
86	0xbe6ea7f3	-0.23306255
87	0xbcc08421	-0.023500504
88	0xbd9114f5	-0.07084075
89	0xbfe41ac6	-1.7820671
90	0x3e97e78f	0.29668853
91	0x3da6964a	0.08134134
92	0xbe24d93a	-0.1609849
93	0xbd0d16d0	-0.034445584
94	0x3d1b9dc3	0.03799225
95	0x3ae6f47d	0.0017620471
96	0xbdba87e4	-0.0910795
97	0x3d8c0fdd	0.06838963
98	0xbe81a9a9	-0.25324753
99	0x3e0d2601	0.13784029
100	0x3d8f4123	0.06994846
101	0x3e1870d7	0.14886795
102	0x3cae7a54	0.021298565
103	0x3ddf9769	0.10917551
104	0xbef6e713	-0.4822317
105	0x3d1f9720	0.038962483
106	0x3d99ec9e	0.07515834
107	0x3c8efd76	0.017454844
108	0xbcb14788	-0.021640554
109	0x3dd39fa1	0.10333181
110	0xbe0bb168	-0.13641894
111	0x3d356852	0.04428894
112	0x3deb7e84	0.1149874
113	0x3e374094	0.17895728
114	0x3de14712	0.10999884
115	0x3d85f3db	0.06540652
116	0xbe241b29	-0.16025986
117	0xbc69f636	-0.014279893
118	0xbd670b06	-0.056406997
119	0xbdae5e20	-0.08514047
120	0xbdb9dda3	-0.09075477
121	0xbca0b067	-0.019615365
122	0xbbe5d559	-0.0070139584
123	0xbe00aa16	-0.12564883
124	0x3b884987	0.004159156
125	0x3d987273	0.074437045
126	0xbd086885	-0.033302803
127	0x3e083dd8	0.13304842
128	0x3d340f89	0.043960128
129	0xbc3a364b	-0.0113654835
130	0x3d75ecc4	0.06004025
131	0xbbb72212	-0.0055887783
132	0xbe5303d7	-0.20606934
133	0x3e01ebbb	0.1268758
134	0x3daf83b5	0.08570043
135	0xbe219f56	-0.15783438
136	0x3ecaa5b4	0.39579546
137	0x3d5a3c7d	0.053280342
138	0xbef063c8	-0.46951127
139	0x3d806c1a	0.06270619
140	0x3d0203e2	0.031741984
141	0xbe960a6d	-0.2930483
142	0x3d8c95d0	0.06864512
143	0x3e5070e8	0.2035557

weight f4 [64]
0	0x3f800000	1.0
1	0x3f800000	1.0
2	0x3f800000	1.0
3	0x3f800000	1.0
4	0x3f800000	1.0
5	0x3f800000	1.0
6	0x3f800000	1.0
7	0x3f800000	1.0
8	0x3f800000	1.0
9	0x3f800000	1.0
10	0x3f800000	1.0
11	0x3f800000	1.0
12	0x3f800000	1.0
13	0x3f800000	1.0
14	0x3f800000	1.0
15	0x3f800000	1.0
16	0x3f800000	1.0
17	0x3f800000	1.0
18	0x3f800000	1.0
19	0x3f800000	1.0
20	0x3f800000	1.0
21	0x3f800000	1.0
22	0x3f800000	1.0
23	0x3f800000	1.0
24	0x3f800000	1.0
25	0x3f800000	1.0
26	0x3f800000	1.0
27	0x3f800000	1.0
28	0x3f800000	1.0
29	0x3f800000	1.0
30	0x3f800000	1.0
31	0x3f800000	1.0
32	0x3f800000	1.0
33	0x3f800000	1.0
34	0x3f800000	1.0
35	0x3f800000	1.0
36	0x3f800000	1.0
37	0x3f800000	1.0
38	0x3f800000	1.0
39	0x3f800000	1.0
40	0x3f800000	1.0
41	0x3f800000	1.0
42	0x3f800000	1.0
43	0x3f800000	1.0
44	0x3f800000	1.0
45	0x3f800000	1.0
46	0x3f800000	1.0
47	0x3f800000	1.0
48	0x3f800000	1.0
49	0x3f800000	1.0
50	0x3f800000	1.0
51	0x3f800000	1.0
52	0x3f800000	1.0
53	0x3f800000	1.0
54	0x3f800000	1.0
55	0x3f800000	1.0
56	0x3f800000	1.0
57	0x3f800000	1.0
58	0x3f800000	1.0
59	0x3f800000	1.0
60	0x3f800000	1.0
61	0x3f800000	1.0
62	0x3f800000	1.0
63	0x3f800000	1.0

bias f4 [64]
0	0x00000000	0.0
1	0x00000000	0.0
2	0x00000000	0.0
3	0x00000000	0.0
4	0x00000000	0.0
5	0x00000000	0.0
6	0x00000000	0.0
7	0x00000000	0.0
8	0x00000000	0.0
9	0x00000000	0.0
10	0x00000000	0.0
11	0x00000000	0.0
12	0x00000000	0.0
13	0x00000000	0.0
14	0x00000000	0.0
15	0x00000000	0.0
16	0x00000000	0.0
17	0x00000000	0.0
18	0x00000000	0.0
19	0x00000000	0.0
20	0x00000000	0.0
21	0x00000000	0.0
22	0x00000000	0.0
23	0x00000000	0.0
24	0x00000000	0.0
25	0x00000000	0.0
26	0x00000000	0.0
27	0x00000000	0.0
28	0x00000000	0.0
29	0x00000000	0.0
30	0x00000000	0.0
31	0x00000000	0.0
32	0x00000000	0.0
33	0x00000000	0.0
34	0x00000000	0.0
35	0x00000000	0.0
36	0x00000000	0.0
37	0x00000000	0.0
38	0x00000000	0.0
39	0x00000000	0.0
40	0x00000000	0.0
41	0x00000000	0.0
42	0x00000000	0.0
43	0x00000000	0.0
44	0x00000000	0.0
45	0x00000000	0.0
46	0x00000000	0.0
47	0x00000000	0.0
48	0x00000000	0.0
49	0x00000000	0.0
50	0x00000000	0.0
51	0x00000000	0.0
52	0x00000000	0.0
53	0x00000000	0.0
54	0x00000000	0.0
55	0x00000000	0.0
56	0x00000000	0.0
57	0x00000000	0.0
58	0x00000000	0.0
59	0x00000000	0.0
60	0x00000000	0.0
61	0x00000000	0.0
62	0x00000000	0.0
63	0x00000000	0.0

running_mean f4 [64]
0	0x00000000	0.0
1	0x00000000	0.0
2	0x00000000	0.0
3	0x00000000	0.0
4	0x00000000	0.0
5	0x00000000	0.0
6	0x00000000	0.0
7	0x00000000	0.0
8	0x00000000	0.0
9	0x00000000	0.0
10	0x00000000	0.0
11	0x00000000	0.0
12	0x00000000	0.0
13	0x00000000	0.0
14	0x00000000	0.0
15	0x00000000	0.0
16	0x00000000	0.0
17	0x00000000	0.0
18	0x00000000	0.0
19	0x00000000	0.0
20	0x00000000	0.0
21	0x00000000	0.0
22	0x00000000	0.0
23	0x00000000	0.0
24	0x00000000	0.0
25	0x00000000	0.0
26	0x00000000	0.0
27	0x00000000	0.0
28	0x00000000	0.0
29	0x00000000	0.0
30	0x00000000	0.0
31	0x00000000	0.0
32	0x00000000	0.0
33	0x00000000	0.0
34	0x00000000	0.0
35	0x00000000	0.0
36	0x00000000	0.0
37	0x00000000	0.0
38	0x00000000	0.0
39	0x00000000	0.0
40	0x00000000	0.0
41	0x00000000	0.0
42	0x00000000	0.0
43	0x00000000	0.0
44	0x00000000	0.0
45	0x00000000	0.0
46	0x00000000	0.0
47	0x00000000	0.0
48	0x00000000	0.0
49	0x00000000	0.0
50	0x00000000	0.0
51	0x00000000	0.0
52	0x00000000	0.0
53	0x00000000	0.0
54	0x00000000	0.0
55	0x00000000	0.0
56	0x00000000	0.0
57	0x00000000	0.0
58	0x00000000	0.0
59	0x00000000	0.0
60	0x00000000	0.0
61	0x00000000	0.0
62	0x00000000	0.0
63	0x00000000	0.0

running_var f4 [64]
0	0x3f800000	1.0
1	0x3f800000	1.0
2	0x3f800000	1.0
3	0x3f800000	1.0
4	0x3f800000	1.0
5	0x3f800000	1.0
6	0x3f800000	1.0
7	0x3f800000	1.0
8	0x3f800000	1.0
9	0x3f800000	1.0
10	0x3f800000	1.0
11	0x3f800000	1.0
12	0x3f800000	1.0
13	0x3f800000	1.0
14	0x3f800000	1.0
15	0x3f800000	1.0
16	0x3f800000	1.0
17	0x3f800000	1.0
18	0x3f800000	1.0
19	0x3f800000	1.0
20	0x3f800000	1.0
21	0x3f800000	1.0
22	0x3f800000	1.0
23	0x3f800000	1.0
24	0x3f800000	1.0
25	0x3f800000	1.0
26	0x3f800000	1.0
27	0x3f800000	1.0
28	0x3f800000	1.0
29	0x3f800000	1.0
30	0x3f800000	1.0
31	0x3f800000	1.0
32	0x3f800000	1.0
33	0x3f800000	1.0
34	0x3f800000	1.0
35	0x3f800000	1.0
36	0x3f800000	1.0
37	0x3f800000	1.0
38	0x3f800000	1.0
39	0x3f800000	1.0
40	0x3f800000	1.0
41	0x3f800000	1.0
42	0x3f800000	1.0
43	0x3f800000	1.0
44	0x3f800000	1.0
45	0x3f800000	1.0
46	0x3f800000	1.0
47	0x3f800000	1.0
48	0x3f800000	1.0
49	0x3f800000	1.0
50	0x3f800000	1.0
51	0x3f800000	1.0
52	0x3f800000	1.0
53	0x3f800000	1.0
54	0x3f800000	1.0
55	0x3f800000	1.0
56	0x3f800000	1.0
57	0x3f800000	1.0
58	0x3f800000	1.0
59	0x3f800000	1.0
60	0x3f800000	1.0
61	0x3f800000	1.0
62	0x3f800000	1.0
63	0x3f800000	1.0

weight f4 [4, 64]
0	0x3da96a0f	0.08272182
1	0x3e4d8883	0.20071606
2	0x3d26aa9f	0.04069006
3	0x3c2279f4	0.009916771
4	0x3cb618f2	0.022228692
5	0x3e05b712	0.13058117
6	0x3c1fef69	0.00976167
7	0x3df41ce2	0.119195715
8	0xbd60b29a	-0.054857828
9	0x3a995f39	0.0011701352
10	0xbdb35f8e	-0.0875846
11	0xbd97ba42	-0.07408573
12	0xbe016c6d	-0.12639017
13	0xbdb77a08	-0.089588225
14	0xbe12bb55	-0.14329274
15	0xbd6148c5	-0.05500104
16	0xba748b38	-0.00093286065
17	0xbc44a2e4	-0.012001727
18	0x3b5b846a	0.0033495673
19	0xbdd1482e	-0.10218845
20	0xbd90f10c	-0.07077226
21	0xbcbc2899	-0.022968577
22	0xbd9a1c55	-0.07524935
23	0x3c6e6896	0.014551302
24	0x3e3d4960	0.18485022
25	0x3ddac2c5	0.106816806
26	0xbf2dd0da	-0.6789681
27	0x3d0be1f8	0.034151047
28	0xbe9ff760	-0.3124342
29	0xbd74e92a	-0.059792675
30	0x3da0b6de	0.07847379
31	0x3e55ec8b	0.20891015
32	0x3cc6d231	0.024270149
33	0x3d77fbca	0.06054286
34	0xbe9518b2	-0.29120404
35	0x3e77dc4d	0.24205132
36	0x3d808220	0.062748194
37	0x3d94d2b9	0.07266755
38	0x3db7a7cf	0.08967554
39	0x3dcaded3	0.099057816
40	0x3dc24795	0.094863094
41	0xbc59fad6	-0.013304433
42	0x3beaaff8	0.0071620904
43	0x3d8c3ff1	0.06848133
44	0x3cb97df9	0.022643076
45	0x3d2f3c60	0.042782187
46	0x3cb9fedd	0.022704536
47	0x3ced7f30	0.028991312
48	0x3ddba93e	0.1072564
49	0x3e0b064e	0.13576624
50	0x3cbf9697	0.023387237
51	0x3cbddbb4	0.023176052
52	0x3d00ecca	0.03147582
53	0x3dac8287	0.084233336
54	0x3be49857	0.006976168
55	0x3d27f0c2	0.04100109
56	0x3d6dd2a5	0.058062214
57	0x3d4ecb2b	0.050486725
58	0x3d40594e	0.046960168
59	0xbc2d7d6e	-0.010588987
60	0x3d25b703	0.040457737
61	0x3d5ca1dd	0.053865302
62	0xbad060b4	-0.001589796
63	0x3d2ca669	0.04215089
64	0x3ddff53c	0.109354466
65	0xbd2017f9	-0.039085362
66	0xbd293fbd	-0.04132055
67	0x3e270dc1	0.1631384
68	0x3d51985e	0.0511707
69	0xbd3257f9	-0.04354093
70	0x3e3009d6	0.17191252
71	0xbd2dcdd5	-0.042432625
72	0x3d647477	0.055775132
73	0xbcf2b614	-0.029627837
74	0xbdefb083	-0.11703589
75	0xbcfc0aa4	-0.030766793
76	0xbe00123c	-0.12506956
77	0xbe1164e7	-0.14198647
78	0x3da22d7d	0.079188325
79	0xbd04c89d	-0.032417882
80	0x3d65f9c6	0.056146406
81	0xbdf11921	-0.11772371
82	0xbd00a100	-0.03140354
83	0xbe95cfc3	-0.29260072
84	0xbc843fb2	-0.016143654
85	0xbdb4d2f5	-0.08829299
86	0xbced933a	-0.029000867
87	0xbd65286b	-0.05594675
88	0x3eb68888	0.3565104
89	0x3e1c4f06	0.1526452
90	0xbf46edfb	-0.7770688
91	0x3ef2f622	0.4745341
92	0x3dfb2279	0.122624345
93	0xbcffa701	-0.031207563
94	0x3dde7cd6	0.10863654
95	0xbd268f6b	-0.040664118
96	0xbbf09369	-0.0073417914
97	0x3cd8de88	0.026473299
98	0x3b7a5ec0	0.0038203448
99	0x3df22720	0.11823869
100	0x3e3194f2	0.17341974
101	0x3d3932f0	0.045214593
102	0x3cd61f73	0.026138043
103	0x3cfa98d6	0.030590456
104	0x3d019d4e	0.031644158
105	0x3b9fc3f8	0.004875656
106	0xbc9fc186	-0.019501459
107	0x3c8290d8	0.015938208
108	0x3c3ea02e	0.0116348695
109	0xbd29dabd	-0.04146837
110	0x3cc0643f	0.023485301
111	0xbc5d600a	-0.013511667
112	0x3d8f48ac	0.06996283
113	0x3dd1bd53	0.10241189
114	0x3a985166	0.0011620938
115	0x3c553f8f	0.013015642
116	0x3d993303	0.07480433
117	0x3bd94c07	0.0066313776
118	0x3c5b8b01	0.01339984
119	0x3c29b0e9	0.01035712
120	0x3dc41fe1	0.09576393
121	0x3c524fbd	0.012836394
122	0x3c1c0adb	0.0095240725
123	0x3c18b253	0.00931986
124	0x3ca8e0bf	0.02061498
125	0xbc1e5871	-0.009664641
126	0x3b1880ea	0.0023270198
127	0xbcf58259	-0.029969381
128	0x3dc48d90	0.095973134
129	0x3d2d7a66	0.042353056
130	0x3d41c10e	0.047303252
131	0x3c102c11	0.008799569
132	0x3e2d1037	0.16900717
133	0x3cb12e4a	0.021628518
134	0x3da57dd1	0.08080638
135	0xbd889bf8	-0.06670374
136	0xbd8fe8f7	-0.070268564
137	0xbd4b3365	-0.04960956
138	0x3d98b75f	0.0745685
139	0xbdb0e7c2	-0.08637954
140	0xbe05c196	-0.13062128
141	0xbbe987ee	-0.0071268
142	0xbd3232fb	-0.04350565
143	0xbdc1c919	-0.094621845
144	0x3d8025fc	0.06257245
145	0xbe1e4b40	-0.15458393
146	0x3c62cc80	0.013842702
147	0xbe7cd891	-0.24691989
148	0xbd88c2b4	-0.06677762
149	0xbdda7f29	-0.10668785
150	0x3cd2e099	0.025741862
151	0xbc9c63b5	-0.019090513
152	0x3d95082a	0.07276948
153	0xbf2f803d	-0.6855505
154	0xbecb3f40	-0.39696693
155	0x3ee05335	0.43813482
156	0x3d3b9fae	0.04580658
157	0x3d519a3d	0.051172484
158	0xbd24c498	-0.04022655
159	0x3e15e410	0.1463778
160	0x3da834fe	0.082132325
161	0x3d25b8d0	0.040459454
162	0xbe34d601	-0.17659761
163	0x3e83e536	0.25760812
164	0x3d7162f3	0.058932256
165	0x3caafd66	0.020872783
166	0x3dbcd9e5	0.092212476
167	0x3dee9071	0.11648644
168	0x3d4358e5	0.0476922
169	0xbd2490d9	-0.0401772
170	0xbd663ad2	-0.05620844
171	0x3d73fccb	0.059567254
172	0x3d8fa6d2	0.0701424
173	0x3d204f2b	0.039138
174	0x3c5c8156	0.01345857
175	0x3cc074d9	0.023493217
176	0x3df328b2	0.118729964
177	0x3de31510	0.11088002
178	0x3be7edf0	0.007077925
179	0x3da3c38f	0.07996284
180	0x3da05a89	0.07829768
181	0x3d6fdc2b	0.058559578
182	0xbc4e2633	-0.01258235
183	0x3d6e1b1e	0.05813133
184	0x3d9ea1bb	0.077456914
185	0x3d4a848b	0.04944281
186	0x3d856c3b	0.06514784
187	0xbce51955	-0.02796618
188	0x3d4b7a18	0.049676985
189	0x3d14ca69	0.036325846
190	0x3b2f2aac	0.0026728315
191	0x3d4dafec	0.0502166
192	0x3bb523de	0.0055279573
193	0x3baa0bbf	0.0051893885
194	0xbe568ddf	-0.20952557
195	0xbdd985a8	-0.10621196
196	0x3c013644	0.007886473
197	0x3b60ffb4	0.0034332098
198	0xbd4da77c	-0.050208554
199	0x3be62c2f	0.00702431
200	0x3d543816	0.0518113
201	0x3d99e62f	0.07514607
202	0x3dce1efa	0.10064502
203	0x3e20bcb9	0.15696992
204	0x3d332200	0.043733597
205	0xbcbd3d9b	-0.023100665
206	0xbc0377f0	-0.008024201
207	0xbd67313e	-0.056443445
208	0x3cd18742	0.025577191
209	0x3dce9c9e	0.10088466
210	0xbd352cf6	-0.04423233
211	0xbfcdf81a	-1.609134
212	0x3d923090	0.07138169
213	0x3c9fe5c9	0.01951875
214	0x3cef3872	0.02920172
215	0x3e21fa9b	0.15818255
216	0x3c19178e	0.009343995
217	0x3f27dfb1	0.655757
218	0xbfb4e985	-1.4133765
219	0x3f0c9d06	0.549271
220	0x3e6baadd	0.23014398
221	0x3ea31de2	0.31858736
222	0x3ea10315	0.31447664
223	0xbd00b437	-0.031421866
224	0x3daa2134	0.08307114
225	0xbc5535a7	-0.01301328
226	0xbec0b135	-0.37635198
227	0x3ea9ab78	0.33138633
228	0xbd81860b	-0.06324395
229	0xba221558	-0.000618299
230	0x3d142eba	0.036177374
231	0x3d9f217b	0.07770058
232	0xbcf8fe74	-0.03039477
233	0xbcfbe48a	-0.030748624
234	0xbd844364	-0.06458166
235	0x3ce1310d	0.02748921
236	0x3d0cdfed	0.03439324
237	0xbc7b871d	-0.015352038
238	0x3d7e00e7	0.06201258
239	0x3d028a24	0.031870022
240	0x3d663b44	0.056208864
241	0xbcd950c4	-0.02652777
242	0x3b39abd9	0.002833119
243	0x3db9bbd1	0.09069026
244	0x3d0e26d4	0.034704998
245	0x3c668ed0	0.014072135
246	0x3a197c22	0.0005854984
247	0x3d524605	0.051336307
248	0x3d933451	0.07187713
249	0x3cb44a31	0.022008033
250	0x3d8534e6	0.0650423
251	0x3b1be64c	0.002378839
252	0x3d35630d	0.044283915
253	0x3b436ca8	0.0029819403
254	0xbc174ade	-0.009234158
255	0xbc5006e9	-0.01269696

bias f4 [4]
0	0xbcd53f2a	-0.026031096
1	0x3cbf0aa9	0.023320513
2	0xbd412376	-0.04715296
3	0x3d81b25a	0.06332846
