presentation/pretrained_model_ALE_Breakout-v5_DQN_CONV_1000.pth (torch, 7992 bytes, 7 tensors)

weight f4 [1, 1, 12, 12]
0	0xbd9f69cf	-0.07783853
1	0xbbb4e173	-0.0055200397
2	0x3e03b796	0.12863001
3	0x3d41da38	0.04732725
4	0x3d711441	0.058857206
5	0x3af90455	0.0018998483
6	0x3d017218	0.03160295
7	0x3b108234	0.0022050263
8	0xbe0b5937	-0.13608252
9	0x3d4348e2	0.04767693
10	0x3d77bd46	0.06048324
11	0xbc8ec8fa	-0.017429817
12	0xbdc76307	-0.09735685
13	0x3d871e2a	0.0659755
14	0xbdc4eb86	-0.09615235
15	0xbe78c675	-0.24294455
16	0x3bc7f8e7	0.0061026695
17	0x3d1e8254	0.03869851
18	0xbe7c466f	-0.24636243
19	0x3d8ff420	0.07028985
20	0x3d308329	0.043093834
21	0x3db33971	0.087511905
22	0x3cc36570	0.02385208
23	0xbdf6d89b	-0.12053033
24	0x3d6819f0	0.05666536
25	0x3d82e349	0.063910075
26	0xbd9cb81b	-0.07652303
27	0xbf0d5fee	-0.552245
28	0x3ea314d6	0.31851834
29	0x3fa8e878	1.3195944
30	0xbf8992fd	-1.0747982
31	0x3f22e576	0.6363138
32	0x3ec24411	0.37942556
33	0x3f43d06d	0.7648991
34	0x3e203be0	0.1564784
35	0xbf5f50ee	-0.87232864
36	0x3da4ae83	0.08041098
37	0xbc6a2339	-0.014290624
38	0x3e364d9f	0.17803048
39	0xbebcc267	-0.36867067
40	0xbf15ebd7	-0.5856299
41	0xbe4d44d4	-0.20045787
42	0x3eaaf29f	0.3338823
43	0x3ec9a6a9	0.39384964
44	0xbf61563c	-0.8802221
45	0xbe4e7b2f	-0.20164178
46	0x3ea18d84	0.3155328
47	0x3e13f403	0.14448552
48	0x3d4dfe8d	0.050291587
49	0xbe28264a	-0.16420856
50	0x3e8a6b30	0.27034903
51	0x3e58e022	0.2117925
52	0xbf5997ab	-0.8499705
53	0xbf2727f0	-0.65295315
54	0xbed19018	-0.40930247
55	0xbf46fe92	-0.77732193
56	0xbf583d1a	-0.84468234
57	0xbe7cf51d	-0.24702878
58	0x3f22a910	0.6353922
59	0x3ed7e78c	0.42168844
60	0xbd30cdc0	-0.04316497
61	0xbeb002ce	-0.3437714
62	0x3e6ffd57	0.23436485
63	0x3dde78b7	0.10862868
64	0xbef07b5f	-0.46969125
65	0xbe4f49be	-0.20242974
66	0x3db56fa1	0.08859182
67	0xbf5b015d	-0.85548955
68	0x3e416efe	0.18889996
69	0xbed8129e	-0.42201704
70	0x3ef90ad0	0.48641062
71	0xbeea4d64	-0.4576217
72	0x3decb4e1	0.115579374
73	0xbd562d84	-0.0522895
74	0x3d7d4bce	0.06183987
75	0x3e6b2ce8	0.22966349
76	0xbe9cfde9	-0.30662468
77	0xbe24aa27	-0.16080533
78	0x3efbbc69	0.49167183
79	0x3e9a84d1	0.30179456
80	0x3edc00e5	0.42969432
81	0x3f17fa41	0.5936623
82	0x3e5d7c8a	0.21629539
83	0xbf2f083a	-0.6837193
84	0xbd794393	-0.06085546
85	0x3e3a6d1c	0.18205684
86	0xbc932733	-0.017963028
87	0xbde6bc49	-0.11266381
88	0x3f0f8a72	0.56070626
89	0x3f109a07	0.5648503
90	0xbf3c1758	-0.7347312
91	0xbc05469f	-0.008134513
92	0x3f550db0	0.8322401
93	0xbf56f93f	-0.8397407
94	0x3c1752b0	0.009236023
95	0x3f06ff7a	0.52733576
96	0xbdbdb582	-0.092631355
97	0x3d5b5bc0	0.053554296
98	0xbdbc2ddb	-0.09188434
99	0xbe9a03cd	-0.30081025
100	0xba429857	-0.0007423213
101	0x3f0aa0e9	0.5415178
102	0xbebc6030	-0.36792135
103	0x3e6dffcb	0.23242109
104	0x3f255141	0.6457711
105	0xbf0269f6	-0.50942934
106	0x3dd9d4f0	0.10636318
107	0x3f1af8b9	0.6053577
108	0x3db0d39e	0.08634113
109	0x3cd5b3f8	0.026086792
110	0xbd0a4f4b	-0.033767026
111	0x3d563ab4	0.052302077
112	0x3d47c7ef	0.048774656
113	0x3de4581d	0.11149619
114	0x3ee7b2d9	0.45253637
115	0x3d6ca999	0.05777893
116	0xbb2593e5	-0.0025265154
117	0x3e66cdf2	0.225395
118	0x3e6f3803	0.2336121
119	0x3ecb09ce	0.39655918
120	0x3d93ce80	0.07217121
121	0x3baf1edb	0.0053442544
122	0xbd6c5fbc	-0.057708487
123	0x3e8fdbc1	0.28097346
124	0x3eb15bd8	0.34640384
125	0x3e05550d	0.13020726
126	0xbc87265d	-0.016497785
127	0x3e0c01e3	0.13672595
128	0xbf4fce89	-0.8117452
129	0x3e24543c	0.16047758
130	0x3d9f8e3a	0.077907994
131	0xbf0441f8	-0.5166316
132	0xbe0f6f85	-0.14007385
133	0xbd11326e	-0.035448484
134	0xbc6f90de	-0.014621941
135	0x3e4c0efa	0.19927588
136	0x3e0a11b5	0.13483317
137	0xbe95b416	-0.29238957
138	0xbe1f5f32	-0.15563658
139	0x3d57c938	0.05268213
140	0x3d27ca4d	0.040964413
141	0x3ee74f23	0.45177564
142	0xbd8624b4	-0.06549969
143	0xbec72b52	-0.38900238

weight f4 [64]
0	0x3f800000	1.0
1	0x3f800000	1.0
2	0x3f800000	1.0
3	0x3f800000	1.0
4	0x3f800000	1.0
5	0x3f800000	1.0
6	0x3f800000	1.0
7	0x3f800000	1.0
8	0x3f800000	1.0
9	0x3f800000	1.0
10	0x3f800000	1.0
11	0x3f800000	1.0
12	0x3f800000	1.0
13	0x3f800000	1.0
14	0x3f800000	1.0
15	0x3f800000	1.0
16	0x3f800000	1.0
17	0x3f800000	1.0
18	0x3f800000	1.0
19	0x3f800000	1.0
20	0x3f800000	1.0
21	0x3f800000	1.0
22	0x3f800000	1.0
23	0x3f800000	1.0
24	0x3f800000	1.0
25	0x3f800000	1.0
26	0x3f800000	1.0
27	0x3f800000	1.0
28	0x3f800000	1.0
29	0x3f800000	1.0
30	0x3f800000	1.0
31	0x3f800000	1.0
32	0x3f800000	1.0
33	0x3f800000	1.0
34	0x3f800000	1.0
35	0x3f800000	1.0
36	0x3f800000	1.0
37	0x3f800000	1.0
38	0x3f800000	1.0
39	0x3f800000	1.0
40	0x3f800000	1.0
41	0x3f800000	1.0
42	0x3f800000	1.0
43	0x3f800000	1.0
44	0x3f800000	1.0
45	0x3f800000	1.0
46	0x3f800000	1.0
47	0x3f800000	1.0
48	0x3f800000	1.0
49	0x3f800000	1.0
50	0x3f800000	1.0
51	0x3f800000	1.0
52	0x3f800000	1.0
53	0x3f800000	1.0
54	0x3f800000	1.0
55	0x3f800000	1.0
56	0x3f800000	1.0
57	0x3f800000	1.0
58	0x3f800000	1.0
59	0x3f800000	1.0
60	0x3f800000	1.0
61	0x3f800000	1.0
62	0x3f800000	1.0
63	0x3f800000	1.0

bias f4 [64]
0	0x00000000	0.0
1	0x00000000	0.0
2	0x00000000	0.0
3	0x00000000	0.0
4	0x00000000	0.0
5	0x00000000	0.0
6	0x00000000	0.0
7	0x00000000	0.0
8	0x00000000	0.0
9	0x00000000	0.0
10	0x00000000	0.0
11	0x00000000	0.0
12	0x00000000	0.0
13	0x00000000	0.0
14	0x00000000	0.0
15	0x00000000	0.0
16	0x00000000	0.0
17	0x00000000	0.0
18	0x00000000	0.0
19	0x00000000	0.0
20	0x00000000	0.0
21	0x00000000	0.0
22	0x00000000	0.0
23	0x00000000	0.0
24	0x00000000	0.0
25	0x00000000	0.0
26	0x00000000	0.0
27	0x00000000	0.0
28	0x00000000	0.0
29	0x00000000	0.0
30	0x00000000	0.0
31	0x00000000	0.0
32	0x00000000	0.0
33	0x00000000	0.0
34	0x00000000	0.0
35	0x00000000	0.0
36	0x00000000	0.0
37	0x00000000	0.0
38	0x00000000	0.0
39	0x00000000	0.0
40	0x00000000	0.0
41	0x00000000	0.0
42	0x00000000	0.0
43	0x00000000	0.0
44	0x00000000	0.0
45	0x00000000	0.0
46	0x00000000	0.0
47	0x00000000	0.0
48	0x00000000	0.0
49	0x00000000	0.0
50	0x00000000	0.0
51	0x00000000	0.0
52	0x00000000	0.0
53	0x00000000	0.0
54	0x00000000	0.0
55	0x00000000	0.0
56	0x00000000	0.0
57	0x00000000	0.0
58	0x00000000	0.0
59	0x00000000	0.0
60	0x00000000	0.0
61	0x00000000	0.0
62	0x00000000	0.0
63	0x00000000	0.0

running_mean f4 [64]
0	0x00000000	0.0
1	0x00000000	0.0
2	0x00000000	0.0
3	0x00000000	0.0
4	0x00000000	0.0
5	0x00000000	0.0
6	0x00000000	0.0
7	0x00000000	0.0
8	0x00000000	0.0
9	0x00000000	0.0
10	0x00000000	0.0
11	0x00000000	0.0
12	0x00000000	0.0
13	0x00000000	0.0
14	0x00000000	0.0
15	0x00000000	0.0
16	0x00000000	0.0
17	0x00000000	0.0
18	0x00000000	0.0
19	0x00000000	0.0
20	0x00000000	0.0
21	0x00000000	0.0
22	0x00000000	0.0
23	0x00000000	0.0
24	0x00000000	0.0
25	0x00000000	0.0
26	0x00000000	0.0
27	0x00000000	0.0
28	0x00000000	0.0
29	0x00000000	0.0
30	0x00000000	0.0
31	0x00000000	0.0
32	0x00000000	0.0
33	0x00000000	0.0
34	0x00000000	0.0
35	0x00000000	0.0
36	0x00000000	0.0
37	0x00000000	0.0
38	0x00000000	0.0
39	0x00000000	0.0
40	0x00000000	0.0
41	0x00000000	0.0
42	0x00000000	0.0
43	0x00000000	0.0
44	0x00000000	0.0
45	0x00000000	0.0
46	0x00000000	0.0
47	0x00000000	0.0
48	0x00000000	0.0
49	0x00000000	0.0
50	0x00000000	0.0
51	0x00000000	0.0
52	0x00000000	0.0
53	0x00000000	0.0
54	0x00000000	0.0
55	0x00000000	0.0
56	0x00000000	0.0
57	0x00000000	0.0
58	0x00000000	0.0
59	0x00000000	0.0
60	0x00000000	0.0
61	0x00000000	0.0
62	0x00000000	0.0
63	0x00000000	0.0

running_var f4 [64]
0	0x3f800000	1.0
1	0x3f800000	1.0
2	0x3f800000	1.0
3	0x3f800000	1.0
4	0x3f800000	1.0
5	0x3f800000	1.0
6	0x3f800000	1.0
7	0x3f800000	1.0
8	0x3f800000	1.0
9	0x3f800000	1.0
10	0x3f800000	1.0
11	0x3f800000	1.0
12	0x3f800000	1.0
13	0x3f800000	1.0
14	0x3f800000	1.0
15	0x3f800000	1.0
16	0x3f800000	1.0
17	0x3f800000	1.0
18	0x3f800000	1.0
19	0x3f800000	1.0
20	0x3f800000	1.0
21	0x3f800000	1.0
22	0x3f800000	1.0
23	0x3f800000	1.0
24	0x3f800000	1.0
25	0x3f800000	1.0
26	0x3f800000	1.0
27	0x3f800000	1.0
28	0x3f800000	1.0
29	0x3f800000	1.0
30	0x3f800000	1.0
31	0x3f800000	1.0
32	0x3f800000	1.0
33	0x3f800000	1.0
34	0x3f800000	1.0
35	0x3f800000	1.0
36	0x3f800000	1.0
37	0x3f800000	1.0
38	0x3f800000	1.0
39	0x3f800000	1.0
40	0x3f800000	1.0
41	0x3f800000	1.0
42	0x3f800000	1.0
43	0x3f800000	1.0
44	0x3f800000	1.0
45	0x3f800000	1.0
46	0x3f800000	1.0
47	0x3f800000	1.0
48	0x3f800000	1.0
49	0x3f800000	1.0
50	0x3f800000	1.0
51	0x3f800000	1.0
52	0x3f800000	1.0
53	0x3f800000	1.0
54	0x3f800000	1.0
55	0x3f800000	1.0
56	0x3f800000	1.0
57	0x3f800000	1.0
58	0x3f800000	1.0
59	0x3f800000	1.0
60	0x3f800000	1.0
61	0x3f800000	1.0
62	0x3f800000	1.0
63	0x3f800000	1.0

weight f4 [4, 64]
0	0x3cac84cc	0.021059416
1	0xbdbc2ebe	-0.09188603
2	0xbe1b5b0a	-0.15171447
3	0x3b9f0975	0.0048534223
4	0xbdc53c96	-0.096306965
5	0xbb858d4f	-0.004075683
6	0xbe30c710	-0.17263436
7	0xbdcab242	-0.09897281
8	0xbcda05dc	-0.026614122
9	0xbc7a7e07	-0.015288836
10	0x3de7dacb	0.11321028
11	0x3d9e1245	0.077183284
12	0xbc8e21c7	-0.01735009
13	0x3c4194e0	0.01181528
14	0x3d6102f2	0.05493445
15	0x3c9cb4ac	0.01912912
16	0xbd9df151	-0.07712043
17	0x3e0b7dd9	0.13622226
18	0x3d7753ea	0.06038276
19	0xbd010a90	-0.031504214
20	0x3d5e0144	0.054200426
21	0x3ce78b6d	0.028264726
22	0xbe5d2076	-0.21594414
23	0xbd2158fd	-0.039391506
24	0x3e82a86e	0.25519127
25	0x3ef09bcf	0.46993873
26	0x3e7ee714	0.24892837
27	0xbea4fbf3	-0.32223472
28	0xbeda7236	-0.4266526
29	0xbe325348	-0.17414582
30	0xbe35ec88	-0.17766011
31	0xbdcfa85e	-0.10139535
32	0xbe144bd3	-0.1448205
33	0xbec7b4be	-0.39005083
34	0x3effbae3	0.4994727
35	0x3d80b089	0.062836714
36	0x39b3202e	0.00034165516
37	0xbe22f627	-0.15914212
38	0xbc9c8290	-0.019105226
39	0x3e058ffe	0.1304321
40	0xbd789a05	-0.06069376
41	0x3e3611f7	0.1778029
42	0x3d9c5e34	0.07635155
43	0xbc3b5c0f	-0.011435523
44	0xbb14a61d	-0.002268202
45	0x3e0daed4	0.13836223
46	0xbc9dc559	-0.019259142
47	0xbbdfe4d0	-0.0068326965
48	0x3db99603	0.090618156
49	0xbc189722	-0.009313377
50	0x3b00470b	0.0019573595
51	0xbda43dc2	-0.08019592
52	0x3bf65206	0.007517102
53	0xbb4f9f96	-0.0031680814
54	0xbbf99cc0	-0.007617563
55	0xbc49ff99	-0.012329006
56	0xbd070bb1	-0.032970134
57	0x3a8e9991	0.0010879507
58	0x3b4d4763	0.0031323067
59	0x3c8aa184	0.01692272
60	0x3c1baffe	0.009502409
61	0x3c6b09a1	0.014345557
62	0xba673991	-0.0008820529
63	0x3c176e89	0.009242662
64	0x3e04a32a	0.12952867
65	0xbdc3c016	-0.09558122
66	0xbcf2bc30	-0.02963075
67	0xbd5f87fd	-0.054573048
68	0xbbe8c433	-0.007103467
69	0x3ce0ab05	0.027425298
70	0xbe0ea407	-0.13929759
71	0x3d9c08a3	0.07618835
72	0x3d82f66b	0.06394657
73	0xbd935c80	-0.07195377
74	0x3df1728e	0.11789428
75	0xbd20ec9d	-0.039288152
76	0x3ceeb330	0.029138178
77	0x3c8b7c1e	0.017026957
78	0xbdee5513	-0.1163732
79	0x3dd05281	0.10171986
80	0xbe230d6c	-0.15923089
81	0xbd13210e	-0.035920195
82	0xbb0c24d9	-0.0021384268
83	0x3e1e8c2e	0.15483162
84	0x3ddc432a	0.10754998
85	0x3db0e082	0.086365715
86	0xbd893a01	-0.067005165
87	0xbd8f15b8	-0.069865644
88	0xbfb0363c	-1.3766551
89	0xbdd35b4b	-0.10320147
90	0x3f22249b	0.63337106
91	0xbf0c18a3	-0.5472509
92	0x3eab755d	0.3348798
93	0x3df797d3	0.12089505
94	0xbcf4b25f	-0.02987021
95	0xbf210366	-0.6289581
96	0x3d080d9f	0.033216115
97	0x3e42eb0c	0.19034976
98	0xbeb66f63	-0.35631856
99	0x3cf38f89	0.029731529
100	0xbc37f121	-0.011226923
101	0x3d9ee65e	0.07758783
102	0x3cffd697	0.031230254
103	0x3e17357c	0.14766496
104	0x3e96b4d2	0.2943483
105	0xbec061a7	-0.37574503
106	0xbcfa6267	-0.0305645
107	0xbb4f1169	-0.003159607
108	0xba20c12f	-0.0006132302
109	0x3ca86580	0.020556211
110	0xbc834a8f	-0.016026763
111	0xbc9dd223	-0.01926524
112	0x3dc7a0e9	0.09747488
113	0x3d65a596	0.05606612
114	0x3b29a47c	0.0025885394
115	0xbd8522cf	-0.0650078
116	0x3b6e01ce	0.0036316994
117	0xbb410555	-0.002945264
118	0xbc08231f	-0.008309155
119	0x3bd5cfd5	0.0065250196
120	0x3c9652bd	0.01835
121	0xb8ef061f	-0.00011397548
122	0xbc9cd27c	-0.019143336
123	0x3bed5210	0.0072424486
124	0x3c453c69	0.012038329
125	0x3c494958	0.012285553
126	0xbb95ee15	-0.0045755007
127	0x3c711d8b	0.014716516
128	0xbda1b87a	-0.07896514
129	0x3cb9810c	0.022644542
130	0xbdd52c35	-0.104088224
131	0x3bfb056a	0.0076605575
132	0xbca8ea09	-0.02061941
133	0xbe1258e5	-0.14291723
134	0x3bf5c2b9	0.0075000194
135	0xbd0786c5	-0.03308751
136	0x3a498edf	0.0007688831
137	0x3d0b5d89	0.03402475
138	0x3ccbeb0c	0.024892353
139	0xbd323fcc	-0.043517873
140	0xbcbd3c07	-0.023099912
141	0x3ccc82bf	0.024964688
142	0x3e028af1	0.12748314
143	0x3de88d0a	0.11355026
144	0xbe0d6cf2	-0.1381109
145	0xbdf7764e	-0.12083112
146	0x3d8abaa5	0.06773881
147	0xbd50a3d0	-0.050937474
148	0x3e4e25bd	0.20131584
149	0x3c7531fc	0.0149655305
150	0xbe16e4b5	-0.14735682
151	0xbd5c195d	-0.053735126
152	0x3f4452da	0.7668892
153	0xbeb492ea	-0.35268337
154	0x3ed171d1	0.40907148
155	0xbe24bece	-0.16088411
156	0xbf38cd7f	-0.7218856
157	0xbe59f8b4	-0.21286279
158	0x3c32ec10	0.0109205395
159	0x3b0a0ce1	0.0021064805
160	0xbe32eb93	-0.17472677
161	0x3ed8ea4f	0.42366263
162	0xbcd4c6e0	-0.025973737
163	0xbc898f9a	-0.016792107
164	0xbdfd4da4	-0.123683244
165	0xbf11e378	-0.56987715
166	0xbdc325ff	-0.095287316
167	0x3dfb8250	0.122807145
168	0xbe42cb64	-0.190229
169	0x3f07c79d	0.5303896
170	0xbdb03424	-0.08603695
171	0xbcaf4477	-0.021394951
172	0xbb8fa955	-0.0043841996
173	0x3eb53352	0.35390717
174	0xbdc6c493	-0.09705462
175	0xbd321bfb	-0.043483716
176	0x3e5c83d1	0.21534659
177	0xbe3ebbf4	-0.18626386
178	0x3cf040b0	0.02932772
179	0xbd2acd58	-0.041699737
180	0x3ab54680	0.0013830215
181	0xbaba4114	-0.0014210069
182	0x3b4e85bc	0.0031512817
183	0x3cb37363	0.021905607
184	0xbd3c22da	-0.045931675
185	0x3b4badaa	0.0031078854
186	0x3d07e7e3	0.03318013
187	0x3bbfd97e	0.0058547845
188	0xbbcd9be4	-0.006274687
189	0x3cbd27eb	0.023090323
190	0x3b99e371	0.0046963026
191	0x3cba9b28	0.022779062
192	0x3b80aac1	0.0039266055
193	0xbd3013f6	-0.042987786
194	0xbdd2e9b7	-0.10298484
195	0xbcc95a19	-0.024579095
196	0xbe09cef5	-0.13457854
197	0x3d71481f	0.05890667
198	0xbdaeac12	-0.085289136
199	0x3d2a2f78	0.041549176
200	0x3d70cea7	0.05879083
201	0x3d8d7542	0.06907131
202	0x3d8ad545	0.06778959
203	0xbdb2f401	-0.08737946
204	0xbc70061a	-0.014649892
205	0x3cd183f0	0.025575608
206	0x3ddd0b0e	0.10793124
207	0xbdba9f56	-0.09112422
208	0xbd535634	-0.05159588
209	0xbd5d9442	-0.054096468
210	0x3d426794	0.04746206
211	0x3c8b02b5	0.016969064
212	0x3c8cffb8	0.01721178
213	0x3df7725b	0.120823584
214	0xbe1ac79f	-0.15115212
215	0xbc89862d	-0.016787613
216	0x3e86861e	0.26274198
217	0xbf3ef526	-0.74592817
218	0xbe08a7d6	-0.13345274
219	0x3e5869c2	0.21134093
220	0xbec18d7b	-0.37803254
221	0xbe63241e	-0.22181746
222	0x3d198292	0.037478037
223	0x3f043f22	0.51658833
224	0x3b73ad51	0.0037182162
225	0x3f10ed99	0.56612545
226	0xbf138559	-0.5762535
227	0xbc0f8fa0	-0.00876227
228	0xbbde8139	-0.006790307
229	0x3c873bc8	0.016507998
230	0x3cbe9367	0.023263646
231	0xbe57afa2	-0.21063092
232	0xbdfe7d87	-0.12426286
233	0x3e9d0115	0.30664888
234	0xbdb7f351	-0.08981956
235	0x3c6e6ff5	0.01455306
236	0x3bc06a64	0.0058720578
237	0x3d030f5d	0.031997073
238	0xbcf911c1	-0.030403974
239	0x3bbd386f	0.0057745497
240	0xbd5137e0	-0.051078677
241	0xbe01911f	-0.12653016
242	0x3c03fb3e	0.008055506
243	0xbc846a67	-0.016164018
244	0x3bb1276c	0.005406311
245	0xbbdea4a5	-0.0067945295
246	0xbce7faad	-0.028317774
247	0xbc616c24	-0.013758693
248	0xbdaa715d	-0.083224036
249	0x3c1fb970	0.009748802
250	0xbaa69b7a	-0.001271113
251	0x3c0fb430	0.008770987
252	0x3bfbdb36	0.007686044
253	0x3c416d32	0.011805819
254	0x3b118629	0.002220521
255	0x3bb1a2ae	0.0054210043

bias f4 [4]
0	0x3c569cc9	0.013098904
1	0xbd32fc31	-0.04369754
2	0x3c4a82ae	0.012360258
3	0x3cd6aac1	0.026204469
