presentation/pretrained_model_ALE_Breakout-v5_DQN_CONV_100.pth (torch, 7981 bytes, 7 tensors)

weight f4 [1, 1, 12, 12]
0	0x3d5f227e	0.054476254
1	0xbc084a2d	-0.008318466
2	0xbd394f3d	-0.045241583
3	0xbc706049	-0.014671394
4	0xbd843e72	-0.06457223
5	0x3c2afe55	0.010436614
6	0xbd917b04	-0.071035415
7	0xbcd5d326	-0.02610166
8	0xbbb68f11	-0.005571254
9	0x3cbf4dec	0.023352586
10	0xbcc7d3e6	-0.024393033
11	0x3d229b9d	0.039699186
12	0xbd9883b6	-0.07446997
13	0xbc215093	-0.009845871
14	0xbd628378	-0.05530116
15	0xbdbd6109	-0.092470236
16	0x3db1bd19	0.08678646
17	0x3d2bc135	0.041932303
18	0x3d05a14b	0.032624524
19	0x3c21f870	0.009885892
20	0xbd94e924	-0.072710305
21	0xbd73e526	-0.059544705
22	0x3d108f50	0.035292923
23	0x3d0f23a1	0.034946088
24	0x3d302ce1	0.04301155
25	0xbcfd26c6	-0.030902278
26	0x3d12e867	0.035866167
27	0xbdac9f89	-0.084288664
28	0x3d48625e	0.048921935
29	0x3d5c9fa4	0.053863183
30	0x3cb32697	0.021868987
31	0x3d09d678	0.0336518
32	0x3db6c33f	0.08923959
33	0x3c9f0b24	0.019414492
34	0x3cafe3c8	0.02147092
35	0x3ad640fa	0.0016346269
36	0xbd958c66	-0.073021695
37	0x3dafeccd	0.08590088
38	0x3cee1b67	0.0290658
39	0xbc708162	-0.014679285
40	0x3dab5a9f	0.08366894
41	0xba857224	-0.0010181111
42	0x3d8b5959	0.06804151
43	0x3d9f183b	0.077682935
44	0x3e0b27dd	0.13589425
45	0x3dacef6b	0.08444103
46	0xbdac829e	-0.08423351
47	0x3b2d6980	0.0026460588
48	0x3d84aef2	0.06478681
49	0xbd66ac00	-0.056316376
50	0x3d0657c8	0.03279856
51	0x3c0b9bff	0.008521079
52	0x3d6c96a8	0.057760864
53	0xbe412068	-0.18860018
54	0x3ce492d2	0.02790204
55	0xbe59e06c	-0.21277016
56	0x3dd2cd2f	0.10293042
57	0x3d1ea910	0.03873545
58	0xbf0b9aed	-0.54533273
59	0x3d8126f4	0.06306258
60	0xbc27b235	-0.010235359
61	0xbc3fe780	-0.011712909
62	0x3da2ea14	0.07954803
63	0x3d1440d2	0.03619463
64	0xbcd24a4f	-0.025670199
65	0xbe62d286	-0.22150621
66	0xbd3e995c	-0.046532974
67	0xbe6429b4	-0.22281533
68	0x3dbae3af	0.091254584
69	0x3c95fedc	0.018310003
70	0xbec2c6cc	-0.38042295
71	0x3d622451	0.055210415
72	0x3d4c6baa	0.049907364
73	0xbc45d6f9	-0.012075179
74	0xbd1fe844	-0.039039865
75	0xbd542bb3	-0.051799487
76	0x3cc1d9a9	0.023663359
77	0x3d3d7000	0.04624939
78	0xbd29de5f	-0.041471835
79	0xbd3c9af6	-0.04604622
80	0x3d190763	0.03736056
81	0x3db9c2c2	0.0907035
82	0x3d201472	0.039082
83	0x3d9855c4	0.074382335
84	0x3a54d37b	0.0008118671
85	0xbd50b91e	-0.05095779
86	0x3d0dbf68	0.034606367
87	0xbd4bbf6d	-0.049743105
88	0xbc42bcca	-0.011885831
89	0x3e77cdcd	0.241996
90	0x3d1637b0	0.0366742
91	0x3d76177c	0.06008099
92	0xbda499be	-0.080371365
93	0x3deaec58	0.1147086
94	0x3de3b0f9	0.11117739
95	0x3cd60628	0.026125982
96	0xbd286032	-0.041107364
97	0xbc7e2aa0	-0.015513092
98	0x3d816db2	0.06319751
99	0x3d12afe1	0.035812262
100	0xbc199f59	-0.00937637
101	0xbcf05cc4	-0.02934111
102	0x3d3b9ebd	0.04580568
103	0x3b19ab92	0.002344821
104	0xbd14826f	-0.036257204
105	0xbd91bc98	-0.071160495
106	0xbdb339fa	-0.087512925
107	0xbaa123fd	-0.001229405
108	0x3d94a3bd	0.07257793
109	0xbd7755e0	-0.06038463
110	0x3d2b905a	0.04188571
111	0xbcf4f221	-0.029900612
112	0x3ce33d5e	0.027739223
113	0x3d9f93d2	0.07791866
114	0xbcea5c75	-0.02860854
115	0xbd1228c5	-0.035683412
116	0x3da3eed6	0.08004539
117	0x3d6e0053	0.058105778
118	0xbcb988bc	-0.022648208
119	0xbd59d865	-0.053184886
120	0xbd028f1a	-0.031874754
121	0x3c9563d5	0.01823608
122	0x3dad7a51	0.08470596
123	0xbe3f087b	-0.18655579
124	0x3d4a9b1a	0.049464323
125	0xbd9932f4	-0.07480422
126	0x3d74d686	0.059774898
127	0x3c9645a9	0.018343763
128	0xbcc52728	-0.024066523
129	0x3c8411db	0.016121795
130	0xbda10be8	-0.07863599
131	0xbb88f941	-0.004180104
132	0xbd694388	-0.05694917
133	0x3cb8f774	0.022578932
134	0x3c3ba822	0.01145366
135	0xbe54b1ba	-0.20770922
136	0x3cc5021b	0.024048856
137	0x3d806b39	0.06270451
138	0x3d735610	0.059408247
139	0x3d6043fa	0.054752328
140	0xbc85b429	-0.016321259
141	0xbc9d1e95	-0.019179622
142	0x3dc79c90	0.09746659
143	0xbcf05514	-0.029337443

weight f4 [64]
0	0x3f800000	1.0
1	0x3f800000	1.0
2	0x3f800000	1.0
3	0x3f800000	1.0
4	0x3f800000	1.0
5	0x3f800000	1.0
6	0x3f800000	1.0
7	0x3f800000	1.0
8	0x3f800000	1.0
9	0x3f800000	1.0
10	0x3f800000	1.0
11	0x3f800000	1.0
12	0x3f800000	1.0
13	0x3f800000	1.0
14	0x3f800000	1.0
15	0x3f800000	1.0
16	0x3f800000	1.0
17	0x3f800000	1.0
18	0x3f800000	1.0
19	0x3f800000	1.0
20	0x3f800000	1.0
21	0x3f800000	1.0
22	0x3f800000	1.0
23	0x3f800000	1.0
24	0x3f800000	1.0
25	0x3f800000	1.0
26	0x3f800000	1.0
27	0x3f800000	1.0
28	0x3f800000	1.0
29	0x3f800000	1.0
30	0x3f800000	1.0
31	0x3f800000	1.0
32	0x3f800000	1.0
33	0x3f800000	1.0
34	0x3f800000	1.0
35	0x3f800000	1.0
36	0x3f800000	1.0
37	0x3f800000	1.0
38	0x3f800000	1.0
39	0x3f800000	1.0
40	0x3f800000	1.0
41	0x3f800000	1.0
42	0x3f800000	1.0
43	0x3f800000	1.0
44	0x3f800000	1.0
45	0x3f800000	1.0
46	0x3f800000	1.0
47	0x3f800000	1.0
48	0x3f800000	1.0
49	0x3f800000	1.0
50	0x3f800000	1.0
51	0x3f800000	1.0
52	0x3f800000	1.0
53	0x3f800000	1.0
54	0x3f800000	1.0
55	0x3f800000	1.0
56	0x3f800000	1.0
57	0x3f800000	1.0
58	0x3f800000	1.0
59	0x3f800000	1.0
60	0x3f800000	1.0
61	0x3f800000	1.0
62	0x3f800000	1.0
63	0x3f800000	1.0

bias f4 [64]
0	0x00000000	0.0
1	0x00000000	0.0
2	0x00000000	0.0
3	0x00000000	0.0
4	0x00000000	0.0
5	0x00000000	0.0
6	0x00000000	0.0
7	0x00000000	0.0
8	0x00000000	0.0
9	0x00000000	0.0
10	0x00000000	0.0
11	0x00000000	0.0
12	0x00000000	0.0
13	0x00000000	0.0
14	0x00000000	0.0
15	0x00000000	0.0
16	0x00000000	0.0
17	0x00000000	0.0
18	0x00000000	0.0
19	0x00000000	0.0
20	0x00000000	0.0
21	0x00000000	0.0
22	0x00000000	0.0
23	0x00000000	0.0
24	0x00000000	0.0
25	0x00000000	0.0
26	0x00000000	0.0
27	0x00000000	0.0
28	0x00000000	0.0
29	0x00000000	0.0
30	0x00000000	0.0
31	0x00000000	0.0
32	0x00000000	0.0
33	0x00000000	0.0
34	0x00000000	0.0
35	0x00000000	0.0
36	0x00000000	0.0
37	0x00000000	0.0
38	0x00000000	0.0
39	0x00000000	0.0
40	0x00000000	0.0
41	0x00000000	0.0
42	0x00000000	0.0
43	0x00000000	0.0
44	0x00000000	0.0
45	0x00000000	0.0
46	0x00000000	0.0
47	0x00000000	0.0
48	0x00000000	0.0
49	0x00000000	0.0
50	0x00000000	0.0
51	0x00000000	0.0
52	0x00000000	0.0
53	0x00000000	0.0
54	0x00000000	0.0
55	0x00000000	0.0
56	0x00000000	0.0
57	0x00000000	0.0
58	0x00000000	0.0
59	0x00000000	0.0
60	0x00000000	0.0
61	0x00000000	0.0
62	0x00000000	0.0
63	0x00000000	0.0

running_mean f4 [64]
0	0x00000000	0.0
1	0x00000000	0.0
2	0x00000000	0.0
3	0x00000000	0.0
4	0x00000000	0.0
5	0x00000000	0.0
6	0x00000000	0.0
7	0x00000000	0.0
8	0x00000000	0.0
9	0x00000000	0.0
10	0x00000000	0.0
11	0x00000000	0.0
12	0x00000000	0.0
13	0x00000000	0.0
14	0x00000000	0.0
15	0x00000000	0.0
16	0x00000000	0.0
17	0x00000000	0.0
18	0x00000000	0.0
19	0x00000000	0.0
20	0x00000000	0.0
21	0x00000000	0.0
22	0x00000000	0.0
23	0x00000000	0.0
24	0x00000000	0.0
25	0x00000000	0.0
26	0x00000000	0.0
27	0x00000000	0.0
28	0x00000000	0.0
29	0x00000000	0.0
30	0x00000000	0.0
31	0x00000000	0.0
32	0x00000000	0.0
33	0x00000000	0.0
34	0x00000000	0.0
35	0x00000000	0.0
36	0x00000000	0.0
37	0x00000000	0.0
38	0x00000000	0.0
39	0x00000000	0.0
40	0x00000000	0.0
41	0x00000000	0.0
42	0x00000000	0.0
43	0x00000000	0.0
44	0x00000000	0.0
45	0x00000000	0.0
46	0x00000000	0.0
47	0x00000000	0.0
48	0x00000000	0.0
49	0x00000000	0.0
50	0x00000000	0.0
51	0x00000000	0.0
52	0x00000000	0.0
53	0x00000000	0.0
54	0x00000000	0.0
55	0x00000000	0.0
56	0x00000000	0.0
57	0x00000000	0.0
58	0x00000000	0.0
59	0x00000000	0.0
60	0x00000000	0.0
61	0x00000000	0.0
62	0x00000000	0.0
63	0x00000000	0.0

running_var f4 [64]
0	0x3f800000	1.0
1	0x3f800000	1.0
2	0x3f800000	1.0
3	0x3f800000	1.0
4	0x3f800000	1.0
5	0x3f800000	1.0
6	0x3f800000	1.0
7	0x3f800000	1.0
8	0x3f800000	1.0
9	0x3f800000	1.0
10	0x3f800000	1.0
11	0x3f800000	1.0
12	0x3f800000	1.0
13	0x3f800000	1.0
14	0x3f800000	1.0
15	0x3f800000	1.0
16	0x3f800000	1.0
17	0x3f800000	1.0
18	0x3f800000	1.0
19	0x3f800000	1.0
20	0x3f800000	1.0
21	0x3f800000	1.0
22	0x3f800000	1.0
23	0x3f800000	1.0
24	0x3f800000	1.0
25	0x3f800000	1.0
26	0x3f800000	1.0
27	0x3f800000	1.0
28	0x3f800000	1.0
29	0x3f800000	1.0
30	0x3f800000	1.0
31	0x3f800000	1.0
32	0x3f800000	1.0
33	0x3f800000	1.0
34	0x3f800000	1.0
35	0x3f800000	1.0
36	0x3f800000	1.0
37	0x3f800000	1.0
38	0x3f800000	1.0
39	0x3f800000	1.0
40	0x3f800000	1.0
41	0x3f800000	1.0
42	0x3f800000	1.0
43	0x3f800000	1.0
44	0x3f800000	1.0
45	0x3f800000	1.0
46	0x3f800000	1.0
47	0x3f800000	1.0
48	0x3f800000	1.0
49	0x3f800000	1.0
50	0x3f800000	1.0
51	0x3f800000	1.0
52	0x3f800000	1.0
53	0x3f800000	1.0
54	0x3f800000	1.0
55	0x3f800000	1.0
56	0x3f800000	1.0
57	0x3f800000	1.0
58	0x3f800000	1.0
59	0x3f800000	1.0
60	0x3f800000	1.0
61	0x3f800000	1.0
62	0x3f800000	1.0
63	0x3f800000	1.0

weight f4 [4, 64]
0	0x3da4ee13	0.080532216
1	0x3bc840b3	0.0061112284
2	0xbcd15fbe	-0.025558349
3	0xbd92a088	-0.07159525
4	0xbd9834ef	-0.07431971
5	0x3d46df20	0.048552632
6	0xbdaa3fc4	-0.083129436
7	0x3d0a04f2	0.033696122
8	0xbd2ac512	-0.041691847
9	0x3d95cb28	0.073141396
10	0x3da01dae	0.07818161
11	0x3d6a9770	0.05727333
12	0xbcbb624e	-0.022874024
13	0x3a3265b4	0.0006805316
14	0x3d563d2c	0.05230443
15	0xbe1021d3	-0.14075403
16	0xbb8eeef5	-0.004361982
17	0x3b870a5e	0.004121109
18	0x3b7be9a4	0.0038438821
19	0x3d8e2422	0.069404855
20	0xbd8c5942	-0.06852962
21	0xbe1058de	-0.140964
22	0x3c134374	0.00898825
23	0x3d708801	0.058723453
24	0xbb8756f2	-0.0041302377
25	0xbe1723d4	-0.14759761
26	0xbd586647	-0.052831914
27	0xbd10e4da	-0.0353745
28	0x3d561e6e	0.052275114
29	0xbd630975	-0.05542894
30	0x3c830e32	0.01599798
31	0x3d2e2d64	0.042523757
32	0xbd1e1d77	-0.03860232
33	0xbc8e4849	-0.017368453
34	0xbc8b8d49	-0.017035143
35	0xbce32361	-0.02772683
36	0xbbbbd09f	-0.0057316567
37	0x3d784b2a	0.060618557
38	0xbda7eae1	-0.081990965
39	0x3b80aa7f	0.0039265747
40	0x3d64ebac	0.055888817
41	0x3dd95f0a	0.106138304
42	0x3dcbfbb4	0.09960118
43	0xbc184f4a	-0.009296248
44	0x3c67de95	0.014152189
45	0x3cd6f731	0.026240917
46	0x3df4f4c2	0.11960746
47	0x3d1af158	0.03782782
48	0xbcce43f3	-0.025178885
49	0x3d8fd700	0.0702343
50	0xbbbedee5	-0.005824911
51	0xbb0c2c59	-0.0021388738
52	0x3d58cee1	0.05293167
53	0xbd3ec77d	-0.046576966
54	0x3d495e80	0.049162388
55	0x3dcdbdc1	0.10045958
56	0x3c9fb472	0.019495223
57	0x3c4828b1	0.012216733
58	0x3da26a89	0.07930476
59	0xbd6095ef	-0.054830488
60	0xbc7bddb9	-0.015372687
61	0xbb831f63	-0.0040015443
62	0x3d534bbd	0.0515859
63	0x3d6a2db5	0.057172496
64	0x3c8b4f25	0.017005512
65	0x3bfe7445	0.0077653253
66	0x3c01bb8a	0.007918248
67	0x3cc740ce	0.024322893
68	0xbd7b0519	-0.06128416
69	0x3daf9f0f	0.0857526
70	0x3c24de2a	0.010062734
71	0x3d3da8eb	0.04630367
72	0xbc16ba95	-0.009199758
73	0x3cfbc8b5	0.030735353
74	0xbd7cb486	-0.061695598
75	0xbc8a5e9f	-0.016890822
76	0xbd8807e1	-0.06642128
77	0xbd17489b	-0.036934476
78	0xbda46ca7	-0.08028536
79	0x3dfff175	0.12497226
80	0xbd15529e	-0.036455743
81	0x3e061285	0.13093002
82	0xbc274295	-0.0102087455
83	0x3c723bde	0.014784781
84	0xbb101c09	-0.0021989367
85	0xbc18e8fd	-0.0093328925
86	0xbc8625f9	-0.016375529
87	0x3d032f2f	0.03202742
88	0xbd894aea	-0.06703742
89	0xbc1185b7	-0.008881978
90	0x3d931843	0.07182362
91	0x3c387509	0.011258372
92	0xbd255ba9	-0.040370617
93	0xbdbd3fb7	-0.09240668
94	0x3d807627	0.06272536
95	0xbd6ff98c	-0.058587596
96	0xbe024dbf	-0.1272497
97	0x3cd84c5b	0.026403597
98	0xbd51ba30	-0.051202953
99	0xbba73e1c	-0.0051038396
100	0x3cda5456	0.026651543
101	0xbd6c63f4	-0.05771251
102	0x3d3b8f20	0.04579079
103	0x3c983c34	0.018583395
104	0x3da30726	0.07960348
105	0x3c9f7789	0.019466178
106	0x3cef78b4	0.02923236
107	0xbc13572d	-0.008992952
108	0x3d319a1a	0.043359853
109	0x3a86b716	0.0010277953
110	0x3da0e589	0.0785628
111	0x3dd05b0b	0.10173615
112	0x3d64a9cc	0.055825993
113	0xbd232d84	-0.03983833
114	0xbc06f337	-0.008236698
115	0x3bbaf79c	0.005705787
116	0x3d1a9a3c	0.037744746
117	0x3c4a98cb	0.01236553
118	0x3c929ba0	0.017896473
119	0x3db99b69	0.09062845
120	0xbd738afe	-0.059458725
121	0x3a426997	0.0007416247
122	0x3d668c08	0.056285888
123	0xbcd438b8	-0.025905952
124	0xbdcf3012	-0.101165906
125	0x3d9367f0	0.07197559
126	0x3d064526	0.03278079
127	0x3c30efb6	0.010799339
128	0xbd112db9	-0.035443995
129	0xbdf13ed1	-0.117795594
130	0xbdd4b4db	-0.10386058
131	0xbddd1e93	-0.10796847
132	0x3d173e08	0.036924392
133	0x3d2477ff	0.0401535
134	0x3dbc70d3	0.09201207
135	0xbd206b0d	-0.03916459
136	0xbe05a7ed	-0.1305234
137	0x3e0bcfd3	0.13653497
138	0xbdd02aef	-0.10164439
139	0x3d74be7b	0.05975197
140	0xbca3587c	-0.019939654
141	0x3e10c23d	0.14136596
142	0x3e001ae0	0.12510252
143	0x3cc44eed	0.023963416
144	0x3cb1b967	0.021694852
145	0x3dd9c2ef	0.10632884
146	0x3de78f8e	0.11306678
147	0xbee0a006	-0.43872088
148	0xbd0feb78	-0.03513667
149	0xbd530b74	-0.051524594
150	0x3d527a4e	0.05138617
151	0x3b987236	0.004652287
152	0xbe538ace	-0.20658419
153	0xbd894044	-0.06701711
154	0xbd2bf0a9	-0.04197756
155	0xbe54b292	-0.20771244
156	0xbc0c75a1	-0.008572967
157	0x3cc08568	0.023501113
158	0x3dc68271	0.096928485
159	0xbe0ed73f	-0.13949297
160	0x3d752283	0.059847366
161	0xbd2ad232	-0.041704364
162	0x3dda77dd	0.10667393
163	0xbd10bc78	-0.035335988
164	0x3d57b998	0.05266723
165	0x3d1965af	0.03745049
166	0x3b5dafeb	0.003382678
167	0x3cfd8f27	0.03095205
168	0x3c0de5df	0.008660763
169	0xbc879af1	-0.016553374
170	0xbb9ca774	-0.004780704
171	0x3c82f507	0.015985979
172	0x3dc1b3cc	0.09458122
173	0xbce183bd	-0.027528638
174	0x3d548723	0.05188669
175	0x3e0641ee	0.13111088
176	0x3d941ee3	0.07232454
177	0x3df62db1	0.12020434
178	0xb8838d6b	-6.272908e-05
179	0x3d49f8b7	0.04930946
180	0xbd9f2c1a	-0.077720836
181	0xbd2c1b7d	-0.042018402
182	0x3d3843ed	0.044986654
183	0xbcca7702	-0.02471495
184	0xbdd913b4	-0.10599461
185	0x3adb4402	0.0016728642
186	0x3d6fb8f0	0.05852598
187	0x3d655df4	0.055997804
188	0x38fe2b59	0.00012119738
189	0xba17fd74	-0.00057979603
190	0xbd82f36c	-0.06394085
191	0xbd03328d	-0.03203063
192	0xbd8d8d64	-0.06911734
193	0x3d21795c	0.039422378
194	0x3d7c016a	0.061524786
195	0x3d97f457	0.07419651
196	0x3d74ea18	0.05979356
197	0x3d7b0e18	0.061292738
198	0x3d284a1c	0.0410863
199	0xbd98398a	-0.0743285
200	0x3c068908	0.008211382
201	0xbdcc2a29	-0.09968979
202	0xbe258395	-0.16163476
203	0x3c7db4ee	0.0154850315
204	0xbda0cc1c	-0.07851431
205	0x3d575689	0.05257276
206	0x3d83d0cd	0.0643631
207	0x3c27ef1f	0.010249882
208	0xbda47195	-0.080294766
209	0x3d95ae03	0.07308581
210	0xbdc77c03	-0.0974045
211	0x3e636009	0.22204603
212	0x3dc9b3a9	0.098487206
213	0x3d8265ae	0.0636705
214	0xbd9b4e2c	-0.075832695
215	0x3dcad50c	0.09903917
216	0xbccb6b75	-0.024831513
217	0xbc37f49f	-0.011227756
218	0xbeae23f2	-0.340118
219	0xbd83436c	-0.06409344
220	0xbe6b0413	-0.22950773
221	0xbd2cefa0	-0.04222071
222	0xbdacd410	-0.08438885
223	0x3dc4747e	0.095925316
224	0xbc51abde	-0.012797324
225	0xbd882c5c	-0.06649086
226	0x3db5e3db	0.088813506
227	0x3c857a99	0.01629381
228	0xbcfb1fa9	-0.030654745
229	0x3dc129e0	0.09431815
230	0xbd281b07	-0.0410414
231	0x3d932fd3	0.07186856
232	0xbdc96a23	-0.09834697
233	0xba76854d	-0.00094040186
234	0xbcf10382	-0.029420618
235	0x3c947069	0.018120008
236	0x3dda4a3c	0.1065869
237	0xbd289b7c	-0.041163906
238	0x3def161b	0.11674138
239	0xbda87b47	-0.08226638
240	0xbdac300d	-0.084076025
241	0x3dafe5bb	0.085887395
242	0xbc1ab262	-0.009441944
243	0xbd167953	-0.036736798
244	0x3cdb7f35	0.026794055
245	0xbd07ac9c	-0.033123598
246	0x3d31a4fa	0.043370225
247	0x3df38932	0.11891402
248	0x3c8b2577	0.016985638
249	0xb87bddd6	-6.0049664e-05
250	0xbcaff260	-0.021477878
251	0xbc12d809	-0.00896264
252	0x3ce5066d	0.027957166
253	0x3cfbb5f9	0.03072642
254	0x3d2dfba7	0.042476323
255	0x3d677f5c	0.056517944

bias f4 [4]
0	0x3da25e00	0.07928085
1	0x3da69c7a	0.08135314
2	0xbdc2548c	-0.09488782
3	0xbd693b1d	-0.05694114
