presentation/transfer_bkout_pong_cnn_1k/pretrained_model_ALE_Breakout-v5_DQN_CONV_1000.pth (torch, 7992 bytes, 7 tensors)

weight f4 [1, 1, 12, 12]
-0.038136695 0.057997208 0.07849581 -0.0021561652 -0.044156913 -0.01725166 0.03471308 0.0864692
0.1296143 -0.042933967 -0.048534505 -0.06450314 -0.099668495 -0.07882813 0.09353706 -0.008559189
0.05013521 0.08999439 -0.1782975 -0.018632768 0.017395852 -0.052448 0.0060346527 0.036786746
0.052946348 -0.006790345 -0.04375951 0.052476168 0.087111756 0.15223093 -0.39307117 0.03660635
0.088321395 0.033075422 -0.024954302 0.05026244 0.014978413 0.03858471 -0.0068397345 0.00502807
0.11428857 0.032266513 -0.18309762 -0.024150785 0.32375103 0.0017168206 0.065173686 -0.03905992
0.024159035 -0.061386216 -0.06468987 -0.04293968 0.36716378 0.2156147 0.21243457 -0.8826218
0.22724006 0.0050966702 -0.24325202 0.07680765 -0.038949497 0.002091132 -0.042341404 -0.022663884
0.37834385 0.2874696 -0.03525863 -0.863667 -0.12093289 -0.030777683 -0.2863155 -0.19455317
-0.059393235 -0.022762077 -0.06645011 -0.07315093 0.02254159 0.026567925 0.045558512 0.09393165
0.25366068 0.0043924726 -0.06821252 -0.24764775 -0.044002533 -0.0454126 -0.045665547 -0.030657316
-0.020179408 0.1651056 0.34063885 0.07974592 0.22776009 -0.90431035 -0.07608363 -0.05183959
-0.07577807 -0.046167843 0.0770184 0.046166178 -0.13073313 0.02063208 0.3749724 -0.15801963
-0.160474 -0.72678924 0.06241677 0.21965931 -0.030822529 -0.0004449409 0.047020923 -0.0050273826
-0.16079174 -0.012557001 -0.118984655 -0.15508297 -0.17733793 -0.026987484 0.036694095 0.2809732
0.057055384 -0.037278634 -0.06469179 -0.0019255645 -0.096890554 0.03666524 -0.09209134 -0.1070475
0.16148573 -0.0055788187 -0.05334848 -0.29885504 -0.02575507 -0.018602014 -0.11223172 0.02706581
1.1135292 1.086897 -0.4918631 0.026791815 0.5403857 0.113622434 0.17192827 -1.2726507
00000000: 3935 1cbd 7b8e 6d3d 69c2 a03d 734e 0dbb
00000010: e1dd 34bd 5a53 8dbc 4d2f 0e3d c416 b13d
00000020: 9cb9 043e 87db 2fbd 1ecc 46bd 391a 84bd
00000030: ff1e ccbd a570 a1bd 5c90 bf3d d73b 0cbc
00000040: 945a 4d3d fb4e b83d 9f93 36be bfa3 98bc
00000050: bf81 8e3c b7d3 56bd 56be c53b b3ad 163d
00000060: 45de 583d 8b81 debb 2c3d 33bd 40f1 563d
00000070: a667 b23d 6de2 1b3e a040 c9be 8af0 153d
00000080: d9e1 b43d 187a 073d f76c ccbc fddf 4d3d
00000090: 0468 753c 000b 1e3d da1f e0bb 82c2 a43b
000000a0: 2010 ea3d e429 043d f17d 3bbe ded7 c5bc
000000b0: b2c2 a53e f106 e13a c879 853d 4bfd 1fbd
000000c0: 2be9 c53c 1d70 7bbd 1f7c 84bd 85e1 2fbd
000000d0: e4fc bb3e 1aca 5c3e 7388 593e 81f3 61bf
000000e0: 9eb1 683e f801 a73b 0f17 79be 544d 9d3d
000000f0: 8289 1fbd 600b 093b 2e6e 2dbd 9ca9 b9bc
00000100: 49b6 c13e 372f 933e 5a6b 10bd 4819 5dbf
00000110: aaab f7bd 7b21 fcbc f297 92be f238 47be
00000120: 5246 73bd 8977 babc ff16 88bd 28d0 95bd
00000130: 24a9 b83c faa4 d93c 909b 3a3d 3d5f c03d
00000140: d0df 813e bbee 8f3b 01b3 8bbd 5f97 7dbe
00000150: 003c 34bd 9002 3abd cc0b 3bbd 0d25 fbbc
00000160: 494f a5bc 7111 293e 3768 ae3e d451 a33d
00000170: f139 693e e280 67bf bcd1 9bbd c055 54bd
00000180: 8831 9bbd 7e1a 3dbd d3bb 9d3d bf18 3d3d
00000190: e8de 05be 9c04 a93c 62fc bf3e e6cf 21be
000001a0: 4c53 24be dc0e 3abf baa8 7f3d 5fee 603e
000001b0: 877f fcbc f546 e9b9 0399 403d bebc a4bb
000001c0: 97a6 24be e1bb 4dbc 3aae f3bd 12ce 1ebe
000001d0: 1398 35be db14 ddbc 8c4c 163d b8db 8f3e
000001e0: e8b2 693d 7bb1 18bd 217d 84bd 3963 fcba
000001f0: 8e6e c6bd 4a2e 163d 629a bcbd b83b dbbd
00000200: 845c 253e 86ce b6bb f083 5abd 8703 99be
00000210: 4cfc d2bc 4063 98bc bed9 e5bd 1eb9 dd3c
00000220: 2088 8e3f 711f 8b3f 7bd5 fbbe 827a db3c
00000230: b856 0a3f e1b2 e83d f70d 303e 38e6 a2bf

weight f4 [64]
1.0 1.0 1.0 1.0 1.0 1.0 1.0 1.0
1.0 1.0 1.0 1.0 1.0 1.0 1.0 1.0
1.0 1.0 1.0 1.0 1.0 1.0 1.0 1.0
1.0 1.0 1.0 1.0 1.0 1.0 1.0 1.0
1.0 1.0 1.0 1.0 1.0 1.0 1.0 1.0
1.0 1.0 1.0 1.0 1.0 1.0 1.0 1.0
1.0 1.0 1.0 1.0 1.0 1.0 1.0 1.0
1.0 1.0 1.0 1.0 1.0 1.0 1.0 1.0
00000000: 0000 803f 0000 803f 0000 803f 0000 803f
00000010: 0000 803f 0000 803f 0000 803f 0000 803f
00000020: 0000 803f 0000 803f 0000 803f 0000 803f
00000030: 0000 803f 0000 803f 0000 803f 0000 803f
00000040: 0000 803f 0000 803f 0000 803f 0000 803f
00000050: 0000 803f 0000 803f 0000 803f 0000 803f
00000060: 0000 803f 0000 803f 0000 803f 0000 803f
00000070: 0000 803f 0000 803f 0000 803f 0000 803f
00000080: 0000 803f 0000 803f 0000 803f 0000 803f
00000090: 0000 803f 0000 803f 0000 803f 0000 803f
000000a0: 0000 803f 0000 803f 0000 803f 0000 803f
000000b0: 0000 803f 0000 803f 0000 803f 0000 803f
000000c0: 0000 803f 0000 803f 0000 803f 0000 803f
000000d0: 0000 803f 0000 803f 0000 803f 0000 803f
000000e0: 0000 803f 0000 803f 0000 803f 0000 803f
000000f0: 0000 803f 0000 803f 0000 803f 0000 803f

bias f4 [64]
0.0 0.0 0.0 0.0 0.0 0.0 0.0 0.0
0.0 0.0 0.0 0.0 0.0 0.0 0.0 0.0
0.0 0.0 0.0 0.0 0.0 0.0 0.0 0.0
0.0 0.0 0.0 0.0 0.0 0.0 0.0 0.0
0.0 0.0 0.0 0.0 0.0 0.0 0.0 0.0
0.0 0.0 0.0 0.0 0.0 0.0 0.0 0.0
0.0 0.0 0.0 0.0 0.0 0.0 0.0 0.0
0.0 0.0 0.0 0.0 0.0 0.0 0.0 0.0
00000000: 0000 0000 0000 0000 0000 0000 0000 0000
00000010: 0000 0000 0000 0000 0000 0000 0000 0000
00000020: 0000 0000 0000 0000 0000 0000 0000 0000
00000030: 0000 0000 0000 0000 0000 0000 0000 0000
00000040: 0000 0000 0000 0000 0000 0000 0000 0000
00000050: 0000 0000 0000 0000 0000 0000 0000 0000
00000060: 0000 0000 0000 0000 0000 0000 0000 0000
00000070: 0000 0000 0000 0000 0000 0000 0000 0000
00000080: 0000 0000 0000 0000 0000 0000 0000 0000
00000090: 0000 0000 0000 0000 0000 0000 0000 0000
000000a0: 0000 0000 0000 0000 0000 0000 0000 0000
000000b0: 0000 0000 0000 0000 0000 0000 0000 0000
000000c0: 0000 0000 0000 0000 0000 0000 0000 0000
000000d0: 0000 0000 0000 0000 0000 0000 0000 0000
000000e0: 0000 0000 0000 0000 0000 0000 0000 0000
000000f0: 0000 0000 0000 0000 0000 0000 0000 0000

running_mean f4 [64]
0.0 0.0 0.0 0.0 0.0 0.0 0.0 0.0
0.0 0.0 0.0 0.0 0.0 0.0 0.0 0.0
0.0 0.0 0.0 0.0 0.0 0.0 0.0 0.0
0.0 0.0 0.0 0.0 0.0 0.0 0.0 0.0
0.0 0.0 0.0 0.0 0.0 0.0 0.0 0.0
0.0 0.0 0.0 0.0 0.0 0.0 0.0 0.0
0.0 0.0 0.0 0.0 0.0 0.0 0.0 0.0
0.0 0.0 0.0 0.0 0.0 0.0 0.0 0.0
00000000: 0000 0000 0000 0000 0000 0000 0000 0000
00000010: 0000 0000 0000 0000 0000 0000 0000 0000
00000020: 0000 0000 0000 0000 0000 0000 0000 0000
00000030: 0000 0000 0000 0000 0000 0000 0000 0000
00000040: 0000 0000 0000 0000 0000 0000 0000 0000
00000050: 0000 0000 0000 0000 0000 0000 0000 0000
00000060: 0000 0000 0000 0000 0000 0000 0000 0000
00000070: 0000 0000 0000 0000 0000 0000 0000 0000
00000080: 0000 0000 0000 0000 0000 0000 0000 0000
00000090: 0000 0000 0000 0000 0000 0000 0000 0000
000000a0: 0000 0000 0000 0000 0000 0000 0000 0000
000000b0: 0000 0000 0000 0000 0000 0000 0000 0000
000000c0: 0000 0000 0000 0000 0000 0000 0000 0000
000000d0: 0000 0000 0000 0000 0000 0000 0000 0000
000000e0: 0000 0000 0000 0000 0000 0000 0000 0000
000000f0: 0000 0000 0000 0000 0000 0000 0000 0000

running_var f4 [64]
1.0 1.0 1.0 1.0 1.0 1.0 1.0 1.0
1.0 1.0 1.0 1.0 1.0 1.0 1.0 1.0
1.0 1.0 1.0 1.0 1.0 1.0 1.0 1.0
1.0 1.0 1.0 1.0 1.0 1.0 1.0 1.0
1.0 1.0 1.0 1.0 1.0 1.0 1.0 1.0
1.0 1.0 1.0 1.0 1.0 1.0 1.0 1.0
1.0 1.0 1.0 1.0 1.0 1.0 1.0 1.0
1.0 1.0 1.0 1.0 1.0 1.0 1.0 1.0
00000000: 0000 803f 0000 803f 0000 803f 0000 803f
00000010: 0000 803f 0000 803f 0000 803f 0000 803f
00000020: 0000 803f 0000 803f 0000 803f 0000 803f
00000030: 0000 803f 0000 803f 0000 803f 0000 803f
00000040: 0000 803f 0000 803f 0000 803f 0000 803f
00000050: 0000 803f 0000 803f 0000 803f 0000 803f
00000060: 0000 803f 0000 803f 0000 803f 0000 803f
00000070: 0000 803f 0000 803f 0000 803f 0000 803f
00000080: 0000 803f 0000 803f 0000 803f 0000 803f
00000090: 0000 803f 0000 803f 0000 803f 0000 803f
000000a0: 0000 803f 0000 803f 0000 803f 0000 803f
000000b0: 0000 803f 0000 803f 0000 803f 0000 803f
000000c0: 0000 803f 0000 803f 0000 803f 0000 803f
000000d0: 0000 803f 0000 803f 0000 803f 0000 803f
000000e0: 0000 803f 0000 803f 0000 803f 0000 803f
000000f0: 0000 803f 0000 803f 0000 803f 0000 803f

weight f4 [4, 64]
0.021850403 -0.046824325 0.047573607 -0.021266669 0.118561395 0.12160948 0.17756692 -0.028483216
0.026113393 -0.07287179 -0.116492234 0.019357007 0.004344231 -0.13478807 -0.008148185 0.05347597
-0.25887847 -0.048708264 -0.0932428 -0.09893781 -0.05388316 -0.07475826 -0.125228 -0.005796108
1.5233476 0.50536853 0.012528573 -0.13912201 -0.43000343 -0.12002333 0.049354576 -0.009801495
0.0010089526 -1.3543885 0.0126030175 0.043808155 0.54332423 0.55729717 0.05055157 0.09937176
-0.14417528 0.15544902 -0.0016506306 0.010883779 -0.03240106 -0.002220546 0.014043352 -0.012279497
-0.068104826 -0.06092016 -0.0023427345 0.1268524 -0.010313214 0.010648306 -0.017076805 0.12013262
-0.16588044 0.010663138 -0.058336962 0.05434556 0.054551814 0.21134274 -0.051370706 -0.0026928228
-0.027040401 0.07353887 0.05473864 0.17132868 0.113646805 0.04127896 0.08089792 0.037541185
-0.01820688 -0.13493231 -0.0909813 0.0568035 -0.04539891 -0.04359471 -0.045906052 -0.04501443
-0.19231057 -0.013300317 0.0393847 -0.060336128 -0.12215664 -0.051803116 0.07097867 -0.04874429
0.25657192 0.23002915 0.098801166 -0.080382064 -0.36228615 -0.19499075 0.066498175 -0.0017943012
-0.003247174 0.20779026 -0.040025357 0.0065517025 0.2908802 0.51978177 0.15164994 0.03838071
-0.036085375 0.056640297 -0.0052651903 0.029124785 -0.007362437 -0.05717305 -0.033722945 0.056596562
0.056085903 0.049851995 0.0060829236 -0.015874937 0.0050766943 0.004138351 0.0158507 0.051271506
-0.06431368 -0.0028169684 0.05486995 0.02080467 0.032191817 0.03276513 -0.018780595 -0.0370746
0.26373407 -0.021308735 0.0720659 -0.03992247 -0.012512515 0.14324413 0.077376455 0.02724381
0.09596547 0.11453551 0.027620615 0.08997952 -0.06951213 0.047690514 -0.07990201 -0.0819743
-0.17433834 0.0031291526 -0.044122756 0.029266529 -0.1454531 -0.032579236 -0.07246985 0.039846588
-0.76024127 0.3781346 -0.0200047 0.1652988 -0.31799215 -0.107501335 0.3393948 0.25101998
-0.05889847 1.1785458 0.04490064 0.010333974 0.44310442 0.96307707 0.17038877 0.024158118
0.10433706 0.003382408 -0.0016066947 0.00035961633 0.0028364786 -0.3490471 -0.016498473 -0.012387035
0.07443441 -0.0032861729 0.0034711056 0.005299855 -0.012138397 0.034678407 0.0077400445 0.21442589
-0.0105503965 -0.0011918087 -0.0015226757 0.0009344862 0.007952998 -0.08687031 -0.026434293 -0.024603453
0.08656472 -0.003455132 0.035210233 0.068049446 0.1428679 -0.03639196 0.08075824 0.02774022
-0.023674324 -0.07575356 -0.12975603 -0.022681985 -0.099802904 0.06504474 0.06423269 -0.011528218
-0.20615606 0.010568312 0.04537998 -0.03757648 -0.11257755 0.022362204 -0.09076471 -0.1317159
0.5457945 -0.0033873944 0.09771315 0.02203196 -0.37877017 -0.018682888 -0.020925859 -0.067593716
-0.17376398 -0.027137011 -0.06360073 0.0067454865 0.42933154 0.2953543 0.054947976 0.03784214
0.020896975 0.019658389 -0.00025308772 0.0003812377 -0.01451338 -0.029077146 -0.023883753 -0.031924006
-0.17765735 0.015522949 -0.0022965993 0.06451803 0.01292683 0.012430236 -0.00066110893 0.1511855
-0.12086115 0.0027902157 0.02148563 0.014017572 0.009605551 -0.017469052 -0.023627091 -0.025907954
00000000: 9eff b23c ddca 3fbd 8bdc 423d 7037 aebc
00000010: 51d0 f23d 640e f93d 1ad4 353e a255 e9bc
00000020: c1eb d53c ce3d 95bd 7b93 eebd 9692 9e3c
00000030: 0d5a 8e3b e205 0abe f77f 05bc 9e09 5b3d
00000040: b88b 84be 5182 47bd 15f6 bebd e89f cabd
00000050: 97b4 5cbd dc1a 99bd c53b 00be 47ed bdbb
00000060: 0efd c23f d55f 013f a544 4d3c 0076 0ebe
00000070: 6929 dcbe cbce f5bd 0628 4a3d 7396 20bc
00000080: d53e 843a 9a5c adbf e37c 4e3c 2e70 333d
00000090: 4c17 0b3f 07ab 0e3f 2a0f 4f3d 6c83 cb3d
000000a0: afa2 13be 072e 1f3e f959 d8ba e151 323c
000000b0: f9b6 04bd 9486 11bb 1616 663c f22f 49bc
000000c0: 8b7a 8bbd 6b87 79bd 9088 19bb 98e5 013e
000000d0: c1f8 28bc 3c76 2e3c a8e4 8bbc 1708 f63d
000000e0: 90dc 29be 71b4 2e3c bdf2 6ebd 7399 5e3d
000000f0: b971 5f3d 3b6a 583e 176a 52bd 127a 30bb
00000100: d583 ddbc 8c9b 963d a035 603d c970 2f3e
00000110: a8bf e83d 2014 293d cfad a53d c9c4 193d
00000120: 9826 95bc b22b 0abe 6754 babd c9aa 683d
00000130: 35f4 39bd 5e90 32bd fc07 3cbd 0d61 38bd
00000140: 10ed 44be 93e9 59bc da51 213d 0423 77bd
00000150: 432d fabd 812f 54bd 445d 913d 18a8 47bd
00000160: 655d 833e c38c 6b3e 4458 ca3d 5a9f a4bd
00000170: 927d b9be a8ab 47be 3230 883d c22e ebba
00000180: 8ace 54bb f8c6 543e a1f1 23bd aaaf d63b
00000190: 40ee 943e 6b10 053f 1f4a 1b3e 1735 1d3d
000001a0: 42ce 13bd a8ff 673d 9e87 acbb 1a97 ee3c
000001b0: 9940 f1bb 4a2e 6abd 1221 0abd ccd1 673d
000001c0: 55ba 653d 9b31 4c3d 4353 c73b 280c 82bc
000001d0: 665a a63b 019b 873b 54d9 813c 1202 523d
000001e0: e4b6 83bd e39c 38bb 50bf 603d 8e6e aa3c
000001f0: 91db 033d bb34 063d c3d9 99bc 89db 17bd
00000200: 2708 873e a88f aebc 4997 933d be85 23bd
00000210: 4b01 4dbc 97ae 123e 8c77 9e3d 692e df3c
00000220: 8b89 c43d 9891 ea3d a144 e23c 2f47 b83d
00000230: 605c 8ebd 2157 433d aaa3 a3bd 24e2 a7bd
00000240: c085 32be 7812 4d3b 10ba 34bd 5cc0 ef3c
00000250: a8f1 14be ce71 05bd 136b 94bd 2d36 233d
00000260: 2c9f 42bf dc9a c13e e6e0 a3bc 1744 293e
00000270: decf a2be a929 dcbd 28c5 ad3e b185 803e
00000280: 863f 71bd 97da 963f bce9 373d d44f 293c
00000290: 95de e23e 388c 763f 657a 2e3e 3fe7 c53c
000002a0: abae d53d 64ab 5d3b ba97 d2ba e38a bc39
000002b0: 37e4 393b 4db6 b2be ce27 87bc fef2 4abc
000002c0: 1171 983d d55c 57bb 7d7b 633b 68aa ad3b
000002d0: 21e0 46bc f20a 0e3d 33a0 fd3b 7692 5b3e
000002e0: 92db 2cbc 7736 9cba 8594 c7ba 4ff8 743a
000002f0: 4b4d 023c 10e9 b1bd bb8c d8bc 2e8d c9bc
00000300: d848 b13d 7f6f 62bb 9b38 103d 825d 8b3d
00000310: f64b 123e bc0f 15bd 9364 a53d 753f e33c
00000320: a8f0 c1bc af24 9bbd c4de 04be 92cf b9bc
00000330: 7765 ccbd 2d36 853d 6e8c 833d dae0 3cbc
00000340: 931a 53be b726 2d3c 5ce0 393d cce9 19bd
00000350: 0f8f e6bd f130 b73c d9e2 b9bd 88e0 06be
00000360: 30b9 0b3f 0cff 5dbb d51d c83d 5e7c b43c
00000370: 2aee c1be db0c 99bc b56c abbc 936e 8abd
00000380: 2fef 31be 704e debc 1941 82bd 3e09 dd3b
00000390: 58d1 db3e ae38 973e 2111 613d 5c00 1b3d
000003a0: 2230 ab3c a10a a13c dcb0 84b9 dce0 c739
000003b0: 87c9 6dbc 3233 eebc dca7 c3bc bfc2 02bd
000003c0: cfeb 35be f853 7e3c 8b82 16bb 0722 843d
000003d0: 0ecb 533c 30a8 4b3c 454e 2dba 5fd0 1a3e
000003e0: 0d86 f7bd 0ddc 363b a202 b03c f5a9 653c
000003f0: 9a60 1d3c 421b 8fbc 9a8d c1bc eb3c d4bc

bias f4 [4]
0.09915464 -0.030485583 0.12750666 0.07010166
00000000: 9711 cb3d e7bc f9bc 1b91 023e 7691 8f3d
