presentation/pong_mlp_10k/pretrained_model_ALE_Pong-v5_DQN_CONV_10000.pth (torch, 8471 bytes, 7 tensors)

weight f4 [1, 1, 12, 12]
0	0xbc869203	-0.016427046
1	0xbd8dbfd3	-0.06921353
2	0xbd938e69	-0.07204897
3	0xbcfe757d	-0.031061882
4	0x3b87bc06	0.004142287
5	0x3dac50ab	0.08413824
6	0xbd96ca2e	-0.073627815
7	0xbc580bfe	-0.013186453
8	0x3d26ae16	0.040693365
9	0xb9d4f40a	-0.00040617614
10	0xbcc27f45	-0.023742327
11	0x3d71d4bd	0.059040774
12	0xbd58ebd0	-0.052959263
13	0xbd1e91af	-0.038713153
14	0x3ceeb506	0.029139053
15	0xbc594041	-0.013259948
16	0xbd791077	-0.060806718
17	0x3d41784f	0.047233876
18	0xbd8e276d	-0.069411136
19	0xbc3a52c0	-0.011372268
20	0xbce51244	-0.027962811
21	0xba28432c	-0.0006418701
22	0xbcfff0ab	-0.03124269
23	0x3d2921f2	0.04129214
24	0x3d915654	0.07096544
25	0xbd234fc1	-0.03987098
26	0x3cfb949d	0.030710513
27	0xbc952f00	-0.018210888
28	0xbd3dc69b	-0.046331983
29	0xbd721a77	-0.05910727
30	0x3da00c25	0.078148164
31	0x3d08ca74	0.0333962
32	0xbd6b0cdf	-0.05738532
33	0x3c1bee23	0.009517225
34	0x3d35a24e	0.04434424
35	0xbc923763	-0.017848676
36	0xbd1ae6fd	-0.037817944
37	0x3d81d208	0.063388884
38	0x3d5f6c3b	0.054546576
39	0x3bc125dc	0.005894406
40	0x3d162534	0.036656573
41	0xbc835108	-0.01602985
42	0xbbe7410d	-0.007057315
43	0x3d27aeca	0.040938176
44	0xbd0ca40f	-0.034336146
45	0xbd1caff7	-0.03825375
46	0xbd08465b	-0.03327022
47	0xba6192cf	-0.0008604945
48	0xbd997f45	-0.07494978
49	0x3d07cbb5	0.033153255
50	0xbd6c7925	-0.05773272
51	0x3d42e712	0.047583647
52	0xbd90f629	-0.07078201
53	0x3d5ef882	0.054436214
54	0xbd0d82a0	-0.0345484
55	0x3d896b47	0.06709915
56	0x3b26190f	0.0025344526
57	0x3d2fa0ea	0.04287807
58	0xbba185e3	-0.0049292906
59	0xbc640d7c	-0.013919231
60	0xbbf1c9b5	-0.0073787817
61	0xbc731445	-0.014836376
62	0x3cda25f8	0.026629433
63	0x3d9273ef	0.07151019
64	0xbd8b5658	-0.06803578
65	0x3d601385	0.054706115
66	0x3d4ed875	0.0504994
67	0x3d773371	0.060351793
68	0xbce59ac0	-0.028027892
69	0xbd9ee09b	-0.07757684
70	0xbd919370	-0.071081996
71	0x3d38a61e	0.045080297
72	0x3d8c55a9	0.06852276
73	0xbd2df836	-0.04247304
74	0x3c6998fe	0.014257668
75	0xbc1a0d82	-0.009402635
76	0x3c6df9fc	0.014524933
77	0xbd07e6c3	-0.033179056
78	0xbd989748	-0.074507296
79	0x3d992c34	0.07479134
80	0x3d40bd10	0.047055304
81	0x3d621545	0.055196065
82	0x3d5dd2aa	0.054155983
83	0x3d1e2b86	0.038615726
84	0x3c00e4b8	0.007867031
85	0x3d328e33	0.043592643
86	0xbc3b3cc4	-0.011428062
87	0x3b97fc3a	0.004638222
88	0xbd9ae136	-0.07562487
89	0x3bd4830d	0.006485349
90	0xbc0110fc	-0.007877585
91	0xbd3f2505	-0.046666164
92	0x3c8e7835	0.017391304
93	0x3d8ecd3b	0.06972738
94	0x3d7c8996	0.06165465
95	0xbbfea419	-0.007771027
96	0x3d2181f8	0.03943059
97	0x3d4f0696	0.05054339
98	0x3d0b5692	0.034018107
99	0xbd04e17b	-0.032441597
100	0xbc5ce405	-0.0134820985
101	0xbcca1f11	-0.024673017
102	0x3daa6414	0.0831987
103	0xbcc566a5	-0.024096796
104	0xbd3b45e0	-0.045720935
105	0x3d0d46aa	0.03449122
106	0xbd41149b	-0.04713879
107	0x3bfc4ff8	0.0076999627
108	0xbcc281a1	-0.023743453
109	0xbd8902a3	-0.06689956
110	0x3cb0d395	0.021585265
111	0x3ceae7f1	0.028675051
112	0x3d6da7f8	0.058021516
113	0xbd6af06d	-0.057358194
114	0xbbdc0c1d	-0.006715311
115	0xbc94e840	-0.018177152
116	0x3c1990ec	0.009372931
117	0xbd582285	-0.052767295
118	0xbc598559	-0.013276421
119	0x3cba8136	0.02276669
120	0x3d434753	0.047675442
121	0xbb9d060f	-0.004791982
122	0xbd78fd6d	-0.06078856
123	0xbd370128	-0.044678837
124	0x39eb8d1c	0.00044927828
125	0x3d24cd41	0.040234808
126	0xbd1f3b5d	-0.038874973
127	0x3d93efb5	0.07223455
128	0xbc9f97d9	-0.019481586
129	0xbd384b6f	-0.044993814
130	0x3d98e616	0.074657604
131	0xbd8bceb4	-0.06826535
132	0x3d291bb3	0.04128618
133	0xbd33a93c	-0.043862566
134	0x3ceffd4f	0.029295592
135	0x3db041fd	0.08606336
136	0xbcb4311e	-0.021996077
137	0x3d9b9a97	0.07597845
138	0x3cf63b5b	0.0300576
139	0xbd91a1ed	-0.07110963
140	0x3da6fa80	0.08153248
141	0xbcada07b	-0.021194687
142	0x3cbe7715	0.023250142
143	0x3bab343d	0.005224733

weight f4 [64]
0	0x3f800000	1.0
1	0x3f800000	1.0
2	0x3f800000	1.0
3	0x3f800000	1.0
4	0x3f800000	1.0
5	0x3f800000	1.0
6	0x3f800000	1.0
7	0x3f800000	1.0
8	0x3f800000	1.0
9	0x3f800000	1.0
10	0x3f800000	1.0
11	0x3f800000	1.0
12	0x3f800000	1.0
13	0x3f800000	1.0
14	0x3f800000	1.0
15	0x3f800000	1.0
16	0x3f800000	1.0
17	0x3f800000	1.0
18	0x3f800000	1.0
19	0x3f800000	1.0
20	0x3f800000	1.0
21	0x3f800000	1.0
22	0x3f800000	1.0
23	0x3f800000	1.0
24	0x3f800000	1.0
25	0x3f800000	1.0
26	0x3f800000	1.0
27	0x3f800000	1.0
28	0x3f800000	1.0
29	0x3f800000	1.0
30	0x3f800000	1.0
31	0x3f800000	1.0
32	0x3f800000	1.0
33	0x3f800000	1.0
34	0x3f800000	1.0
35	0x3f800000	1.0
36	0x3f800000	1.0
37	0x3f800000	1.0
38	0x3f800000	1.0
39	0x3f800000	1.0
40	0x3f800000	1.0
41	0x3f800000	1.0
42	0x3f800000	1.0
43	0x3f800000	1.0
44	0x3f800000	1.0
45	0x3f800000	1.0
46	0x3f800000	1.0
47	0x3f800000	1.0
48	0x3f800000	1.0
49	0x3f800000	1.0
50	0x3f800000	1.0
51	0x3f800000	1.0
52	0x3f800000	1.0
53	0x3f800000	1.0
54	0x3f800000	1.0
55	0x3f800000	1.0
56	0x3f800000	1.0
57	0x3f800000	1.0
58	0x3f800000	1.0
59	0x3f800000	1.0
60	0x3f800000	1.0
61	0x3f800000	1.0
62	0x3f800000	1.0
63	0x3f800000	1.0

bias f4 [64]
0	0x00000000	0.0
1	0x00000000	0.0
2	0x00000000	0.0
3	0x00000000	0.0
4	0x00000000	0.0
5	0x00000000	0.0
6	0x00000000	0.0
7	0x00000000	0.0
8	0x00000000	0.0
9	0x00000000	0.0
10	0x00000000	0.0
11	0x00000000	0.0
12	0x00000000	0.0
13	0x00000000	0.0
14	0x00000000	0.0
15	0x00000000	0.0
16	0x00000000	0.0
17	0x00000000	0.0
18	0x00000000	0.0
19	0x00000000	0.0
20	0x00000000	0.0
21	0x00000000	0.0
22	0x00000000	0.0
23	0x00000000	0.0
24	0x00000000	0.0
25	0x00000000	0.0
26	0x00000000	0.0
27	0x00000000	0.0
28	0x00000000	0.0
29	0x00000000	0.0
30	0x00000000	0.0
31	0x00000000	0.0
32	0x00000000	0.0
33	0x00000000	0.0
34	0x00000000	0.0
35	0x00000000	0.0
36	0x00000000	0.0
37	0x00000000	0.0
38	0x00000000	0.0
39	0x00000000	0.0
40	0x00000000	0.0
41	0x00000000	0.0
42	0x00000000	0.0
43	0x00000000	0.0
44	0x00000000	0.0
45	0x00000000	0.0
46	0x00000000	0.0
47	0x00000000	0.0
48	0x00000000	0.0
49	0x00000000	0.0
50	0x00000000	0.0
51	0x00000000	0.0
52	0x00000000	0.0
53	0x00000000	0.0
54	0x00000000	0.0
55	0x00000000	0.0
56	0x00000000	0.0
57	0x00000000	0.0
58	0x00000000	0.0
59	0x00000000	0.0
60	0x00000000	0.0
61	0x00000000	0.0
62	0x00000000	0.0
63	0x00000000	0.0

running_mean f4 [64]
0	0x00000000	0.0
1	0x00000000	0.0
2	0x00000000	0.0
3	0x00000000	0.0
4	0x00000000	0.0
5	0x00000000	0.0
6	0x00000000	0.0
7	0x00000000	0.0
8	0x00000000	0.0
9	0x00000000	0.0
10	0x00000000	0.0
11	0x00000000	0.0
12	0x00000000	0.0
13	0x00000000	0.0
14	0x00000000	0.0
15	0x00000000	0.0
16	0x00000000	0.0
17	0x00000000	0.0
18	0x00000000	0.0
19	0x00000000	0.0
20	0x00000000	0.0
21	0x00000000	0.0
22	0x00000000	0.0
23	0x00000000	0.0
24	0x00000000	0.0
25	0x00000000	0.0
26	0x00000000	0.0
27	0x00000000	0.0
28	0x00000000	0.0
29	0x00000000	0.0
30	0x00000000	0.0
31	0x00000000	0.0
32	0x00000000	0.0
33	0x00000000	0.0
34	0x00000000	0.0
35	0x00000000	0.0
36	0x00000000	0.0
37	0x00000000	0.0
38	0x00000000	0.0
39	0x00000000	0.0
40	0x00000000	0.0
41	0x00000000	0.0
42	0x00000000	0.0
43	0x00000000	0.0
44	0x00000000	0.0
45	0x00000000	0.0
46	0x00000000	0.0
47	0x00000000	0.0
48	0x00000000	0.0
49	0x00000000	0.0
50	0x00000000	0.0
51	0x00000000	0.0
52	0x00000000	0.0
53	0x00000000	0.0
54	0x00000000	0.0
55	0x00000000	0.0
56	0x00000000	0.0
57	0x00000000	0.0
58	0x00000000	0.0
59	0x00000000	0.0
60	0x00000000	0.0
61	0x00000000	0.0
62	0x00000000	0.0
63	0x00000000	0.0

running_var f4 [64]
0	0x3f800000	1.0
1	0x3f800000	1.0
2	0x3f800000	1.0
3	0x3f800000	1.0
4	0x3f800000	1.0
5	0x3f800000	1.0
6	0x3f800000	1.0
7	0x3f800000	1.0
8	0x3f800000	1.0
9	0x3f800000	1.0
10	0x3f800000	1.0
11	0x3f800000	1.0
12	0x3f800000	1.0
13	0x3f800000	1.0
14	0x3f800000	1.0
15	0x3f800000	1.0
16	0x3f800000	1.0
17	0x3f800000	1.0
18	0x3f800000	1.0
19	0x3f800000	1.0
20	0x3f800000	1.0
21	0x3f800000	1.0
22	0x3f800000	1.0
23	0x3f800000	1.0
24	0x3f800000	1.0
25	0x3f800000	1.0
26	0x3f800000	1.0
27	0x3f800000	1.0
28	0x3f800000	1.0
29	0x3f800000	1.0
30	0x3f800000	1.0
31	0x3f800000	1.0
32	0x3f800000	1.0
33	0x3f800000	1.0
34	0x3f800000	1.0
35	0x3f800000	1.0
36	0x3f800000	1.0
37	0x3f800000	1.0
38	0x3f800000	1.0
39	0x3f800000	1.0
40	0x3f800000	1.0
41	0x3f800000	1.0
42	0x3f800000	1.0
43	0x3f800000	1.0
44	0x3f800000	1.0
45	0x3f800000	1.0
46	0x3f800000	1.0
47	0x3f800000	1.0
48	0x3f800000	1.0
49	0x3f800000	1.0
50	0x3f800000	1.0
51	0x3f800000	1.0
52	0x3f800000	1.0
53	0x3f800000	1.0
54	0x3f800000	1.0
55	0x3f800000	1.0
56	0x3f800000	1.0
57	0x3f800000	1.0
58	0x3f800000	1.0
59	0x3f800000	1.0
60	0x3f800000	1.0
61	0x3f800000	1.0
62	0x3f800000	1.0
63	0x3f800000	1.0

weight f4 [6, 64]
0	0x3d1d8a50	0.038461983
1	0xbdba4460	-0.09095073
2	0xbd1dc8db	-0.03852163
3	0xbd39165c	-0.04518734
4	0xbd04ffa5	-0.032470364
5	0x3da9145c	0.08255836
6	0xbd5d7525	-0.054066796
7	0xbc5a0211	-0.013306157
8	0x3db6122c	0.08890185
9	0xbdde5843	-0.10856678
10	0xbd5ff59d	-0.054677594
11	0x3d077143	0.033067
12	0xbdcce652	-0.100048676
13	0x3d4c5ba3	0.04989208
14	0x3d069a99	0.03286228
15	0x3deafc68	0.11473924
16	0x3c5a0f54	0.013309319
17	0x3d333dd7	0.043760147
18	0xbdc15d68	-0.09441644
19	0xbd04bfac	-0.032409355
20	0xbd1a7883	-0.037712585
21	0xbdb7dfca	-0.08978231
22	0xbd551116	-0.052018248
23	0xbd9d93e4	-0.076942235
24	0xbd882f05	-0.06649593
25	0x3de9afa2	0.114104524
26	0x3c2a0f9f	0.010379701
27	0x3cd4fde1	0.025999965
28	0xbdaa8086	-0.08325295
29	0x3d1a5049	0.037674222
30	0x3e013d06	0.12620935
31	0xbbbf3141	-0.005834729
32	0x3e016fff	0.1264038
33	0xbd6bdbd7	-0.057582702
34	0xbd8cefc2	-0.06881668
35	0xbd835530	-0.064127326
36	0x3b5f6124	0.0034085
37	0x3dba07e6	0.09083538
38	0x3bb8930b	0.0056327633
39	0xbd866f64	-0.06564215
40	0x3dfefdaa	0.12450726
41	0xbd7ce7c4	-0.061744466
42	0x3e04deb0	0.12975574
43	0xbd5e7bee	-0.054317407
44	0xbdb0324c	-0.08603343
45	0xbd9d7dbc	-0.076899976
46	0x3d427988	0.047479182
47	0xbde0a712	-0.10969366
48	0x3de65e34	0.112484366
49	0xbd6275d2	-0.055288143
50	0x3e090374	0.13380224
51	0xbdd4a76c	-0.10383496
52	0xbdadeb76	-0.08492176
53	0x3e081d1d	0.13292356
54	0x3b550122	0.0032501896
55	0x3ddc1ba8	0.107474625
56	0x3db043da	0.08606692
57	0x3ab18ea3	0.0013546537
58	0x3dc6c4c0	0.09705496
59	0x3ca7d1bf	0.020485757
60	0x3dfe9904	0.12431529
61	0xbdb000ca	-0.085939005
62	0x3d4ece7e	0.050489895
63	0xbca9bfa3	-0.020721262
64	0x3da3e2ea	0.08002265
65	0xbc561c27	-0.0130682355
66	0xbd93bbdf	-0.07213568
67	0xbcb15bac	-0.021650158
68	0xbca8b4e2	-0.020594064
69	0x3dd89187	0.10574632
70	0x3dfbf238	0.12302059
71	0xbd1958f5	-0.03743835
72	0x3dc0328d	0.09384642
73	0xbd1df115	-0.038559992
74	0x3da2c0f4	0.07946959
75	0x3c7f5e8a	0.015586505
76	0xbdc5d84b	-0.09660395
77	0xbc2646bb	-0.010148699
78	0xbce92467	-0.02845974
79	0xbdc788f3	-0.09742918
80	0xbcea7bd4	-0.028623499
81	0xbd4bef35	-0.049788672
82	0x3d42304d	0.047409344
83	0x3e00bceb	0.12572066
84	0xbd511eec	-0.05105488
85	0xbd9e6a73	-0.07735147
86	0xbc38d1e0	-0.011280507
87	0xbda3c811	-0.07997144
88	0x3db855a7	0.09000712
89	0xbd8fb6c1	-0.070172794
90	0x3c35af7b	0.011089201
91	0xbdd7a065	-0.1052864
92	0xbcab4bd0	-0.020910174
93	0x3d4b6cb2	0.049664207
94	0xbdaa4377	-0.08313649
95	0x3cbe5d7e	0.02323794
96	0xbcf0b84e	-0.029384758
97	0xbce52cf2	-0.027975533
98	0xbcc95bd5	-0.024579922
99	0xbd20c2a5	-0.039248127
100	0xbd6ce9b5	-0.057840068
101	0x3e095697	0.13411938
102	0x3d707b8a	0.058711566
103	0xbd8b7405	-0.06809238
104	0xbddae9b5	-0.10689107
105	0xbd89b6b9	-0.06724305
106	0x3de07c91	0.10961259
107	0xbdaf5dc1	-0.08562804
108	0x3db5da61	0.08879543
109	0x3d8e23b3	0.06940403
110	0x3dcde47d	0.10053346
111	0x3d89e571	0.067332156
112	0xbd8e36f7	-0.069440775
113	0xbc8b58e1	-0.017010154
114	0x3d686c73	0.05674405
115	0x3dc9dc1b	0.09856435
116	0xbdc007a5	-0.09376458
117	0x3bcfa6c3	0.006337018
118	0xbd2d0125	-0.04223742
119	0xbda9f1a7	-0.08298045
120	0x3c5ef08d	0.013607156
121	0x3d5db8db	0.05413137
122	0xbd500a61	-0.050791148
123	0x3ddbd7bb	0.10734507
124	0x3d843a8f	0.06456482
125	0xbbc52255	-0.0060160556
126	0xbc1ea736	-0.009683421
127	0x3d9f8813	0.07789626
128	0xbd21d619	-0.03951082
129	0x3dbb3a1f	0.09141945
130	0xbe067c97	-0.13133465
131	0xbdf50a77	-0.11964887
132	0x3d09505f	0.033523913
133	0x3dae1cdb	0.085015975
134	0xbd7e5d16	-0.062100492
135	0xbdec5dc1	-0.1154132
136	0x3db2e817	0.08735674
137	0x3c6f3529	0.014600077
138	0x3d951bd4	0.072806984
139	0x3aa66dda	0.0012697533
140	0xbca330f5	-0.019920805
141	0x3aae7d52	0.0013312495
142	0xbd0cc0b4	-0.034363464
143	0x3ce243f4	0.027620293
144	0x3ddbe297	0.10736578
145	0xbe022209	-0.12708296
146	0xbcd70af5	-0.026250342
147	0x3d56172f	0.052268203
148	0x3d2b2e2e	0.041792087
149	0x3dac7a9f	0.084218256
150	0x3b5b7e17	0.0033491903
151	0x3d8e6a64	0.06953886
152	0x3c442e9f	0.011974006
153	0xbdfba3fc	-0.12287137
154	0xbd371eed	-0.044707227
155	0xbdfd1a7a	-0.12358566
156	0x3d366ffb	0.044540387
157	0x3c63e767	0.013910151
158	0xbd84e017	-0.06488054
159	0x3cdcf4f0	0.026972264
160	0x3d06462f	0.032781776
161	0xbd404975	-0.046945054
162	0xbc80a07e	-0.015701529
163	0x3defd42b	0.1171039
164	0x3dd7bf49	0.105345316
165	0xbbec3ffb	-0.0072097755
166	0xbd974b87	-0.073874526
167	0xbdb57f0f	-0.08862125
168	0xbd95f4ff	-0.0732212
169	0xbdd29797	-0.1028282
170	0x3b2beaa8	0.0026232395
171	0x3db589b1	0.08864153
172	0xbd5e85f9	-0.054326985
173	0x3dc4c833	0.096084975
174	0x3db88eed	0.09011636
175	0x3dd21ef9	0.10259814
176	0xbdd1f419	-0.10251636
177	0x3d1114ba	0.035420157
178	0x3d3b9270	0.04579395
179	0x3d69300d	0.05693059
180	0x3d1778ee	0.036980562
181	0x3d2d803d	0.042358626
182	0x3dbd323b	0.09238096
183	0x3b299c19	0.0025880395
184	0x3dec51c5	0.11539034
185	0xbdcca625	-0.09992627
186	0x3c6de670	0.014520273
187	0x3d2a0e51	0.04151756
188	0x3cb91e66	0.022597503
189	0xbdfd442d	-0.12366519
190	0xbdd76c97	-0.10518759
191	0x3cb93259	0.022607015
192	0x3b887136	0.0041638864
193	0xbdbeacf9	-0.09310336
194	0xbdd18b67	-0.10231667
195	0xbd3e9abe	-0.046534292
196	0xbd0f8cde	-0.03504645
197	0xbd12681a	-0.03574381
198	0xbd13694a	-0.035989083
199	0x3c0a6286	0.008446341
200	0xbd88bac9	-0.066762514
201	0xbd675b17	-0.056483354
202	0xbd9867c7	-0.07441669
203	0x3c30e2eb	0.010796289
204	0x3df2e62d	0.11860309
205	0x3a971a89	0.0011528294
206	0xbd9eb4d1	-0.07749332
207	0xbba4419f	-0.0050127055
208	0xbcea1b25	-0.028577397
209	0xbdbe6d45	-0.09298185
210	0xbdebed60	-0.11519885
211	0x3c568cf1	0.0130951265
212	0xbdbc8535	-0.09205095
213	0x3db491bd	0.0881686
214	0x3ddf6cd3	0.109094284
215	0xbc32f74d	-0.010923219
216	0x3b23b452	0.0024979305
217	0x3d940381	0.07227231
218	0xbddb65d3	-0.10712781
219	0x3e029205	0.12751015
220	0x3a9de65b	0.0012046801
221	0xbdcefc6f	-0.10106742
222	0xbdb8fed3	-0.09032979
223	0x3db3926f	0.08768164
224	0x3e002736	0.12514958
225	0x3d844b18	0.064596355
226	0x3d3e8586	0.046514057
227	0x3db83a17	0.08995455
228	0x3da6f9a7	0.08153086
229	0xbafaa84a	-0.001912364
230	0xbc37b568	-0.011212684
231	0xbc2dfec1	-0.01061982
232	0xbdd0483b	-0.10170027
233	0x3dfc2a20	0.12312722
234	0xbb3b0714	-0.0028538154
235	0xbce4b562	-0.027918521
236	0x3dd231af	0.10263383
237	0x3dcfc869	0.10145647
238	0x3d86c0ce	0.06579743
239	0x3da3cf6d	0.07998548
240	0xbd91c6df	-0.0711801
241	0x3df979cb	0.12181433
242	0xbddc6c25	-0.107628144
243	0xbc8db0a4	-0.017296143
244	0xbd56b210	-0.052415907
245	0xbdac210f	-0.08404743
246	0x3dcd572b	0.100263916
247	0xbd968685	-0.07349876
248	0x3d9b5677	0.07584851
249	0xbd579f1a	-0.052641965
250	0xbd041bdb	-0.032253128
251	0x3cdb5c6e	0.026777472
252	0x3de90265	0.1137741
253	0x3b6aeb37	0.0035845765
254	0x3dc72185	0.0972319
255	0x3cdba4ee	0.026812043

bias f4 [6]
0	0xbfef43b1	-1.8692533
1	0xbfed2e7d	-1.8529812
2	0xbfed80f8	-1.8554983
3	0xbfee7031	-1.8627988
4	0xbfed6770	-1.8547192
5	0xbfedfadf	-1.8592185
