results/pretrained_model_ALE_Breakout-v5_DQN_CONV_1000.pth (torch, 7992 bytes, 7 tensors)

weight f4 [1, 1, 12, 12]
00000000: 8fd8 d93c 2e9b 92bc d4bf 88bc aca2 283d
00000010: 5add ddbc 6378 9f3d bc06 55bd 5fa7 c6ba
00000020: e444 67bb 29f7 723d 2a3f 4cb9 1f6a 1f3d
00000030: 129c 593d b08b 1b3d 4a9c 803d 0906 14be
00000040: 8181 7cbc 12a9 1c3d d041 cb3d e622 7c3d
00000050: 1970 c23d cd0b 7cb9 d293 f33d 0d62 6d3d
00000060: 4c5a 28be ff6b 84bb 3b86 e53d d5b1 b9be
00000070: ef6b a9be 8fbf 4a3f 58e1 0d3f 7fb4 233d
00000080: 05e1 90bd 0916 5abe 862b 84be 0fea 56bf
00000090: 5250 04be 1b14 913d 0457 c53d 3f83 bcbd
000000a0: 1f0a 56bf 9f69 b9bd d3d6 ddba 1d99 fa3e
000000b0: da3e 993e c4d4 ca3e 235d f6be 01cf 553e
000000c0: 5659 543d 0984 53be ddf8 913c 3fb7 3cbd
000000d0: 43c2 293f ca95 e23e 9e8a 6bbd 7abe 8f3f
000000e0: 4cfe 033f ed5b a23e ded5 e93e e715 7abd
000000f0: c3c1 35bd 3197 9bbe 28e6 7d3c 70f6 ebbd
00000100: 39e5 193f f3f6 ac3e d049 973d 087b 543f
00000110: e084 cbbd 8833 8a3d 3aa7 0c3f c953 823e
00000120: f3ed 3abd 70b6 2bbd b37f 803d ad93 7dbd
00000130: 86b6 3fbe 936d 383e f273 7cbd 1753 06bf
00000140: be54 0a3e 2f1b d3bd e7de 85bd 1fb6 b73e
00000150: 4ff4 15bb 8f14 a7bc 4814 793e 72c2 d0bc
00000160: eb02 8ebe 76cb 873e 2008 223e ed63 18be
00000170: 392d 2a3f 7f74 9a3f 1933 fd3d 75ec 873e
00000180: 04b5 2dbd f821 043b 3d73 533e 64b4 273d
00000190: d0be 1e3e 54af 8b3e 2cc5 c33e e5fe bd3d
000001a0: 098b d23e a1c9 283f 48be 3cbe 29da 0b3f
000001b0: 072c 9bbd 90d6 c3bc 596a 8abc 7444 3c3d
000001c0: d3bb 143d 89c6 293e cc06 233d 76d7 bfbc
000001d0: 447f f53d d0bd 2ebf e83e 30bd 7e63 ca3d
000001e0: cc2c 203e b9ed 92bc 4052 99bd b595 1a3c
000001f0: 0fc7 283d d69e 05be f853 de3e 85ae 5c3d
00000200: be99 973d b2ac 133f 1828 1ebe 1908 2b3f
00000210: 3e5b dc3d ecc5 31bd 5802 acbd 6c1c 01bc
00000220: c630 0dbd 6b26 d13b 0335 82bb 8cee 35bd
00000230: dd85 8a3d 7670 613e 596e 5f3d 442f 773e
0.026592521 -0.017896261 -0.016693033 0.04117076 -0.027083088 0.07786634 -0.052008376 -0.0015156082
-0.0035288865 0.05931774 -0.00019478487 0.038919564 0.053127356 0.037975013 0.0627981 -0.14455427
-0.0154117355 0.038247176 0.09924662 0.06155672 0.09494037 -0.00024036989 0.11893429 0.057954837
-0.16440696 -0.0040411945 0.11207243 -0.36268488 -0.3309016 0.79198545 0.5542197 0.039967056
-0.07074169 -0.21297468 -0.25814456 -0.83950895 -0.12921265 0.07083913 0.096357375 -0.09204721
-0.83609194 -0.09053349 -0.0016924985 0.4894494 0.29930764 0.39615452 -0.48117933 0.20879747
0.05184301 -0.20655836 0.017818863 -0.046073195 0.66312045 0.44254905 -0.057505243 1.1230004
0.515599 0.3171076 0.4567098 -0.061056044 -0.04437424 -0.30388787 0.015496768 -0.115216136
0.6011539 0.33782157 0.073871255 0.8300023 -0.09937453 0.0674811 0.5494267 0.25454548
-0.045637082 -0.041922033 0.06274357 -0.061908413 -0.18721971 0.18010549 -0.06163401 -0.52470535
0.13508889 -0.10307919 -0.06536656 0.35881135 -0.0022881215 -0.020395545 0.24324143 -0.025483344
-0.277366 0.26522416 0.15823412 -0.14881869 0.66475254 1.2066802 0.12363262 0.2654759
-0.042408958 0.0020161849 0.20649429 0.04094352 0.15502477 0.27282202 0.38236368 0.09277133
0.411217 0.6593266 -0.18431962 0.5462976 -0.07576757 -0.023906022 -0.016896414 0.04596372
0.036311936 0.16579641 0.039801404 -0.02341817 0.119871646 -0.6825838 -0.043028742 0.09882258
0.15642089 -0.01793562 -0.07486391 0.009435107 0.041205462 -0.13048872 0.43423438 0.053877372
0.07402371 0.5768539 -0.15444982 0.6680923 0.107595906 -0.043401644 -0.083988845 -0.007880311
-0.034470342 0.0063827536 -0.0039736046 -0.04441695 0.06763814 0.22015557 0.054548595 0.24139124

weight f4 [64]
00000000: 0000 803f 0000 803f 0000 803f 0000 803f
00000010: 0000 803f 0000 803f 0000 803f 0000 803f
00000020: 0000 803f 0000 803f 0000 803f 0000 803f
00000030: 0000 803f 0000 803f 0000 803f 0000 803f
00000040: 0000 803f 0000 803f 0000 803f 0000 803f
00000050: 0000 803f 0000 803f 0000 803f 0000 803f
00000060: 0000 803f 0000 803f 0000 803f 0000 803f
00000070: 0000 803f 0000 803f 0000 803f 0000 803f
00000080: 0000 803f 0000 803f 0000 803f 0000 803f
00000090: 0000 803f 0000 803f 0000 803f 0000 803f
000000a0: 0000 803f 0000 803f 0000 803f 0000 803f
000000b0: 0000 803f 0000 803f 0000 803f 0000 803f
000000c0: 0000 803f 0000 803f 0000 803f 0000 803f
000000d0: 0000 803f 0000 803f 0000 803f 0000 803f
000000e0: 0000 803f 0000 803f 0000 803f 0000 803f
000000f0: 0000 803f 0000 803f 0000 803f 0000 803f
1.0 1.0 1.0 1.0 1.0 1.0 1.0 1.0
1.0 1.0 1.0 1.0 1.0 1.0 1.0 1.0
1.0 1.0 1.0 1.0 1.0 1.0 1.0 1.0
1.0 1.0 1.0 1.0 1.0 1.0 1.0 1.0
1.0 1.0 1.0 1.0 1.0 1.0 1.0 1.0
1.0 1.0 1.0 1.0 1.0 1.0 1.0 1.0
1.0 1.0 1.0 1.0 1.0 1.0 1.0 1.0
1.0 1.0 1.0 1.0 1.0 1.0 1.0 1.0

bias f4 [64]
00000000: 0000 0000 0000 0000 0000 0000 0000 0000
00000010: 0000 0000 0000 0000 0000 0000 0000 0000
00000020: 0000 0000 0000 0000 0000 0000 0000 0000
00000030: 0000 0000 0000 0000 0000 0000 0000 0000
00000040: 0000 0000 0000 0000 0000 0000 0000 0000
00000050: 0000 0000 0000 0000 0000 0000 0000 0000
00000060: 0000 0000 0000 0000 0000 0000 0000 0000
00000070: 0000 0000 0000 0000 0000 0000 0000 0000
00000080: 0000 0000 0000 0000 0000 0000 0000 0000
00000090: 0000 0000 0000 0000 0000 0000 0000 0000
000000a0: 0000 0000 0000 0000 0000 0000 0000 0000
000000b0: 0000 0000 0000 0000 0000 0000 0000 0000
000000c0: 0000 0000 0000 0000 0000 0000 0000 0000
000000d0: 0000 0000 0000 0000 0000 0000 0000 0000
000000e0: 0000 0000 0000 0000 0000 0000 0000 0000
000000f0: 0000 0000 0000 0000 0000 0000 0000 0000
0.0 0.0 0.0 0.0 0.0 0.0 0.0 0.0
0.0 0.0 0.0 0.0 0.0 0.0 0.0 0.0
0.0 0.0 0.0 0.0 0.0 0.0 0.0 0.0
0.0 0.0 0.0 0.0 0.0 0.0 0.0 0.0
0.0 0.0 0.0 0.0 0.0 0.0 0.0 0.0
0.0 0.0 0.0 0.0 0.0 0.0 0.0 0.0
0.0 0.0 0.0 0.0 0.0 0.0 0.0 0.0
0.0 0.0 0.0 0.0 0.0 0.0 0.0 0.0

running_mean f4 [64]
00000000: 0000 0000 0000 0000 0000 0000 0000 0000
00000010: 0000 0000 0000 0000 0000 0000 0000 0000
00000020: 0000 0000 0000 0000 0000 0000 0000 0000
00000030: 0000 0000 0000 0000 0000 0000 0000 0000
00000040: 0000 0000 0000 0000 0000 0000 0000 0000
00000050: 0000 0000 0000 0000 0000 0000 0000 0000
00000060: 0000 0000 0000 0000 0000 0000 0000 0000
00000070: 0000 0000 0000 0000 0000 0000 0000 0000
00000080: 0000 0000 0000 0000 0000 0000 0000 0000
00000090: 0000 0000 0000 0000 0000 0000 0000 0000
000000a0: 0000 0000 0000 0000 0000 0000 0000 0000
000000b0: 0000 0000 0000 0000 0000 0000 0000 0000
000000c0: 0000 0000 0000 0000 0000 0000 0000 0000
000000d0: 0000 0000 0000 0000 0000 0000 0000 0000
000000e0: 0000 0000 0000 0000 0000 0000 0000 0000
000000f0: 0000 0000 0000 0000 0000 0000 0000 0000
0.0 0.0 0.0 0.0 0.0 0.0 0.0 0.0
0.0 0.0 0.0 0.0 0.0 0.0 0.0 0.0
0.0 0.0 0.0 0.0 0.0 0.0 0.0 0.0
0.0 0.0 0.0 0.0 0.0 0.0 0.0 0.0
0.0 0.0 0.0 0.0 0.0 0.0 0.0 0.0
0.0 0.0 0.0 0.0 0.0 0.0 0.0 0.0
0.0 0.0 0.0 0.0 0.0 0.0 0.0 0.0
0.0 0.0 0.0 0.0 0.0 0.0 0.0 0.0

running_var f4 [64]
00000000: 0000 803f 0000 803f 0000 803f 0000 803f
00000010: 0000 803f 0000 803f 0000 803f 0000 803f
00000020: 0000 803f 0000 803f 0000 803f 0000 803f
00000030: 0000 803f 0000 803f 0000 803f 0000 803f
00000040: 0000 803f 0000 803f 0000 803f 0000 803f
00000050: 0000 803f 0000 803f 0000 803f 0000 803f
00000060: 0000 803f 0000 803f 0000 803f 0000 803f
00000070: 0000 803f 0000 803f 0000 803f 0000 803f
00000080: 0000 803f 0000 803f 0000 803f 0000 803f
00000090: 0000 803f 0000 803f 0000 803f 0000 803f
000000a0: 0000 803f 0000 803f 0000 803f 0000 803f
000000b0: 0000 803f 0000 803f 0000 803f 0000 803f
000000c0: 0000 803f 0000 803f 0000 803f 0000 803f
000000d0: 0000 803f 0000 803f 0000 803f 0000 803f
000000e0: 0000 803f 0000 803f 0000 803f 0000 803f
000000f0: 0000 803f 0000 803f 0000 803f 0000 803f
1.0 1.0 1.0 1.0 1.0 1.0 1.0 1.0
1.0 1.0 1.0 1.0 1.0 1.0 1.0 1.0
1.0 1.0 1.0 1.0 1.0 1.0 1.0 1.0
1.0 1.0 1.0 1.0 1.0 1.0 1.0 1.0
1.0 1.0 1.0 1.0 1.0 1.0 1.0 1.0
1.0 1.0 1.0 1.0 1.0 1.0 1.0 1.0
1.0 1.0 1.0 1.0 1.0 1.0 1.0 1.0
1.0 1.0 1.0 1.0 1.0 1.0 1.0 1.0

weight f4 [4, 64]
00000000: f25d c2bc 737c b23d b70d 79bd 763f bbbd
00000010: 7a74 c83c 287f 43bd ce69 0d3e dc4e 44bd
00000020: 94cd c2bd adb7 133e a72c f33d 8345 3a3e
00000030: 54dc 4f3d 656b 473d a4a4 55bd c9a4 6d3d
00000040: c1bf 2ebe 8275 37bd 01df 56bd 62b9 66bd
00000050: 467e a239 5c08 31bd 3e4a d9bd 907f 3fbd
00000060: f639 593f 31fd b7bd 0da2 4a3f 8178 09be
00000070: cb51 2f3f 4821 56be 15db 2cbd 510c e33e
00000080: 5c4c 00bd af33 183f 5dd4 2a3f 2b2e 36bd
00000090: 0e9e 5cbe 6ea7 063f c84f 12bd b0d5 41bc
000000a0: c0d9 05be 66cc 7c3e a53b 693c 1928 9838
000000b0: ad27 ccbc 45f2 683c 1006 05bc 6c1d 30ba
000000c0: 7f27 a5bc 74a4 97bc 4f6d 4fbb 16a0 92bb
000000d0: dcd0 9dbc b9ee afbc 1e22 51bc 85d3 2e3c
000000e0: befe 02bd dda4 71bb 987c 463c bfc8 90bb
000000f0: e1af 8cbb 4454 7ebb 343b 20bc f5d6 62bc
00000100: f779 06bd af51 c53d 9769 eb39 f22b 303c
00000110: 2c2b 3b3d 47ea 52bd 6c50 6cbd 8c66 1cbd
00000120: 9d71 29ba c1c1 98bb 147a 213d b218 133d
00000130: 8d10 933d f01d f63c 3668 663d 9b6a ee3d
00000140: 1336 30be 9542 71bd 3173 39bd 1784 6cbd
00000150: d655 adba ff34 2e3c 3b80 61bd a20e 4fbd
00000160: ab0c 573f 14e6 b0bd b7cb 473f e1c5 e1bd
00000170: c4ad 2e3f 4020 37be d5cd b3bd 1cdb f23e
00000180: cbc3 3cbd c381 173f dda7 2a3f 43b0 38bd
00000190: 26aa 5dbe f8d6 063f 04cd 12bd 92e3 53bc
000001a0: 64df 6abd 470f 7b3e 75c2 4d3c f3eb 0eb9
000001b0: 9d32 d5bc 8e84 573c 55d1 09bc a5eb 23ba
000001c0: e3a7 d5bc 57d9 9bbc 1965 7fbb a382 acbb
000001d0: 9168 97bc e4d3 b4bc b87e 6bbc 8b3a 8a3b
000001e0: 4ec8 e2bc 7686 85bb d54e 4b3c b356 acbb
000001f0: 7705 acbb 5c6b 8ebb ba00 2dbc 4683 84bc
00000200: ddc5 efbc cc87 813d 9d1d 5cbb 1071 403c
00000210: af19 763d 212d 953c 3338 97bc b0cf 54bc
00000220: eb96 eabd d169 683c c522 d13d 7eb0 ee3d
00000230: 2dfd 323d 1f9e d7bc 22b9 263e 3946 043e
00000240: effa 2ebe 2d6c 49bd 4573 52bd 17fe 64bd
00000250: de2c 9a3a d116 7cbc a86b f6bd 43e0 55bd
00000260: aceb 593f b722 babd 8429 4a3f 8a2b 06be
00000270: 2288 2f3f 918b 53be 77a7 c0bc 250b f33e
00000280: eec5 2cbd e10b 183f a6d2 2a3f ac7c 34bd
00000290: 93ba 5cbe ff68 063f 0980 13bd d260 48bc
000002a0: f84b 3bbd 30a8 7c3e c3b0 6a3c 36e5 4d39
000002b0: a181 cbbc 0c2f 673c 2871 06bc e832 28ba
000002c0: f220 a2bc f901 96bc b1f8 3fbb 5bbf a9bb
000002d0: 7650 9abc fdf8 adbc d73e 52bc a0f6 5ebb
000002e0: de17 d8bc f8f6 6cbb cc90 303c b6e5 aabb
000002f0: ce49 8dbb 4308 6cbb 175c 17bc 15a2 62bc
00000300: ef2b 203d 9c4b 25bd 9bc7 a9bc a732 903c
00000310: d062 fcbd 8dfc 93bd 9f0f 51bd 86ff a73d
00000320: 5745 babd 0df8 923d 8331 d83d 0af3 043d
00000330: c796 a93c 73ca d93b aeab 013e a07d 063e
00000340: b7f3 30be e1ba 6ebd 3220 45bd 1f42 5cbd
00000350: 3fdc 0bbb e971 c5bc 5772 59bd 1d77 41bd
00000360: 9150 583f 4e60 b0bd 135e 483f ecdc 03be
00000370: eee9 2e3f 1fe4 2fbe 1ba6 ccbd 470a e93e
00000380: 67dd 32bd 14a6 173f bb7e 2a3f 0780 36bd
00000390: 1f55 5ebe ac0f 073f f2b1 13bd 4d48 4fbc
000003a0: 8c92 b9bd c911 7b3e 2f1f 443c 0ae3 62b8
000003b0: 0023 d1bc 870d 643c 88fb 05bc da92 57ba
000003c0: a989 a6bc 77f7 90bc fe93 6fbb 93ff c3bb
000003d0: 897a 90bc b415 b6bc b7c3 68bc 726c ccba
000003e0: a399 10bd ef6c 84bb aa38 4c3c 7441 adbb
000003f0: 9f5f a4bb 198f 6fbb 898d 1ebc 80e6 80bc
-0.023726437 0.08715143 -0.060804095 -0.091429636 0.024469603 -0.047728688 0.13809893 -0.04792677
-0.09511867 0.14425536 0.11873751 0.18190579 0.05074723 0.048686404 -0.052158967 0.05801848
-0.17065336 -0.0447898 -0.052458767 -0.05632914 0.0003099313 -0.043220863 -0.10609864 -0.046752512
0.84854066 -0.08983839 0.7915352 -0.13424875 0.6848418 -0.20911133 -0.04220112 0.44345334
-0.031322822 0.5945386 0.6673029 -0.044477623 -0.21544668 0.5259923 -0.035720617 -0.011830732
-0.13071346 0.24687347 0.014235412 7.2553936e-05 -0.024921263 0.014217918 -0.008119121 -0.00067182514
-0.020160435 -0.018511035 -0.0031650846 -0.00447465 -0.019264631 -0.021476137 -0.012764482 0.010670547
-0.031981222 -0.0036871948 0.012114666 -0.004418462 -0.0042934273 -0.003880755 -0.00977974 -0.013845195
-0.03283116 0.096347205 0.00044901363 0.010752665 0.04569547 -0.051492956 -0.057693884 -0.038183734
-0.0006463768 -0.004661769 0.039423063 0.035912223 0.07180891 0.030043572 0.056251727 0.11641427
-0.17208128 -0.05890139 -0.04527587 -0.05774316 -0.0013224434 0.010632752 -0.05505393 -0.050551064
0.84003705 -0.08637634 0.7804522 -0.110240705 0.68233895 -0.17883396 -0.08779494 0.47432792
-0.04608516 0.59182376 0.6666239 -0.04508997 -0.21646938 0.52671766 -0.03584005 -0.012932675
-0.05734195 0.24517547 0.012558569 -0.00013630073 -0.02602511 0.013154162 -0.008411725 -0.00062530703
-0.026081031 -0.019024534 -0.003897017 -0.0052645965 -0.018482478 -0.022073694 -0.014373474 0.0042184046
-0.027683403 -0.004074867 0.012408932 -0.005259359 -0.005249675 -0.0043462943 -0.010559255 -0.016175877
-0.029269153 0.06324729 -0.0033586987 0.011745706 0.060083088 0.018209996 -0.018459415 -0.01298897
-0.114545666 0.014185385 0.1021171 0.11654757 0.04369848 -0.026320515 0.1628156 0.12917413
-0.17087911 -0.04917543 -0.05137946 -0.05590638 0.0011762639 -0.015386299 -0.120322526 -0.052215826
0.8512523 -0.090886526 0.789696 -0.13102546 0.685671 -0.20658709 -0.023517353 0.4746944
-0.042180948 0.59393126 0.66727674 -0.04406421 -0.21555547 0.5250396 -0.036010776 -0.012230115
-0.045726746 0.24673533 0.01432437 0.00019635711 -0.024842085 0.014110338 -0.0082056895 -0.0006416277
-0.0197911 -0.018311488 -0.0029292519 -0.005180282 -0.018837195 -0.02123689 -0.012832365 -0.0034021512
-0.026378568 -0.0036157947 0.01077671 -0.005215372 -0.0043117767 -0.0036015667 -0.0092382645 -0.013832589
0.0391044 -0.04035531 -0.020725062 0.017602278 -0.123235345 -0.072259046 -0.051040288 0.08203034
-0.09095257 0.07176218 0.105563186 0.032458343 0.020701779 0.0066464483 0.12663147 0.1313386
-0.1728047 -0.05828369 -0.048126407 -0.053773995 -0.0021340994 -0.024102168 -0.05308756 -0.047232736
0.84497935 -0.08612119 0.78268546 -0.12877244 0.683257 -0.17176865 -0.099926196 0.45515653
-0.043668177 0.5923779 0.66599625 -0.04455569 -0.21712159 0.5275829 -0.036058374 -0.012651515
-0.09061155 0.24518503 0.011970325 -5.4094045e-05 -0.025529385 0.013919241 -0.0081776455 -0.0008223482
-0.020329313 -0.017696125 -0.0036556716 -0.0059813946 -0.017636554 -0.022227146 -0.014206818 -0.0015596284
-0.03530277 -0.004041306 0.012464682 -0.0052873436 -0.0050162817 -0.0036553799 -0.009677299 -0.015734911

bias f4 [4]
00000000: 27db 47bd ce8d 3e3e 8a29 0f3e 70dc fbba
-0.048792984 0.18608782 0.1398069 -0.0019215476
