results/pretrained_model_ALE_Pong-v5_DQN_CONV_1000.pth (torch, 8460 bytes, 7 tensors)

weight f4 [1, 1, 12, 12]
-0.080734044 -0.026228298 0.054745056 -0.022915611 -0.074548036 0.0057306113 0.057590615 -0.010378277
0.06646951 0.06891984 -0.00024184484 0.063139595 -0.0045845937 0.06232146 -0.024060179 -0.017969547
0.012864721 -0.06486135 -0.028420469 -0.057880457 0.028028227 0.008031617 0.023418777 0.06579926
0.060572393 -0.021523941 -0.05297394 -0.083934724 -0.07690035 0.0008435306 0.035469946 0.05417413
0.010231759 0.06434468 -0.08408811 0.06890768 0.006742829 -0.06919384 0.045741323 0.013563049
-0.014970042 -0.018684763 -0.008910489 -0.014354396 0.039416794 -0.08192336 -0.054979958 -0.049170066
-0.025098361 -0.008442916 0.023610076 -0.03678152 -0.031908043 0.064333886 0.03743033 -0.03570355
-0.061177082 -0.07745385 -0.05598401 0.0057447935 -0.054117806 -0.008813553 0.03500152 0.051884916
0.063033395 -0.036604416 -0.005297094 -0.04847546 0.007777724 0.07485017 -0.007275619 -0.020508748
0.06347276 -0.014529124 0.04690968 0.038205683 0.07832238 -0.057732075 0.056965344 -0.027216239
0.010870225 -0.06591342 -0.032586243 -0.07082127 -0.028633954 -0.026942754 0.07431795 0.055691663
-0.018964566 0.04929599 -0.04172388 -0.057374403 -0.03257994 0.07628311 -0.043152962 -0.0719999
-0.011494894 -0.06518231 0.0007778327 -0.029396597 -0.030609645 0.018090144 -0.08565028 0.049515825
-0.013790319 0.077739745 0.0332503 -0.06576535 0.015966658 0.0682525 -0.016623376 -0.025680285
-0.010662953 -0.08191367 -0.07234625 0.034506172 0.07285759 0.042093456 0.04595534 -0.017839806
-0.015127909 0.049975693 0.043273944 -0.02187191 0.038637668 0.074280046 0.078117594 -0.018080201
0.0100308405 0.07749319 0.01723159 0.048573025 0.076797016 -0.052092288 -0.006095982 -0.06787492
-0.0010240052 0.017834019 0.07457973 0.07352324 -0.07128185 -0.046273444 -0.019673616 0.031124989
00000000: e457 a5bd badc d6bc 5a3c 603d 85b9 bbbc
00000010: a4ac 98bd dac7 bb3b 23e4 6b3d a609 2abc
00000020: 2b21 883d d825 8d3d bb97 7db9 554f 813d
00000030: 5c3a 96bb ca44 7f3d da19 c5bc df34 93bc
00000040: 8dc6 523c 07d6 84bd 0bd2 e8bc 0f14 6dbd
00000050: 749b e53c 0b97 033c bcd8 bf3c c3c1 863d
00000060: c21a 783d fa52 b0bc 34fb 58bd f8e5 abbd
00000070: ee7d 9dbd 6120 5d3a ef48 113d b1e5 5d3d
00000080: 1ca3 273c 25c7 833d 6336 acbd 781f 8d3d
00000090: f3f2 dc3b 80b5 8dbd 415b 3b3d 8d37 5e3c
000000a0: e844 75bc ca10 99bc 4dfd 11bc b32e 6bbc
000000b0: 8173 213d 6fc7 a7bd aa32 61bd 8d66 49bd
000000c0: 149b cdbc 2854 0abc eb69 c13c 38a8 16bd
000000d0: 02b2 02bd 7cc1 833d 8c50 193d e33d 12bd
000000e0: d294 7abd 20a0 9ebd 7d4f 65bd d23e bc3b
000000f0: a2aa 5dbd b866 10bc c15d 0f3d 4785 543d
00000100: a717 813d 83ee 15bd 3f93 adbb 348e 46bd
00000110: 47dc fe3b 0c4b 993d 5168 eebb f601 a8bc
00000120: 02fe 813d 900b 6ebc 5d24 403d 907d 1c3d
00000130: 7c67 a03d 7878 6cbd 7e54 693d 97f4 debc
00000140: 0719 323c 9dfd 86bd 2779 05bd be0a 91bd
00000150: c191 eabc 0db7 dcbc 0234 983d f11c 643d
00000160: 945b 9bbc 98ea 493d a9e6 2abd 6c01 6bbd
00000170: 8b72 05bd 523a 9c3d 29c1 30bd af74 93bd
00000180: 1455 3cbc 4e7e 85bd 78e7 4b3a 22d1 f0bc
00000190: 14c1 fabc c831 943c 6a69 afbd 1bd1 4a3d
000001a0: caf0 61bc 0436 9f3d 7731 083d fcaf 86bd
000001b0: 82cc 823c f7c7 8b3d bf2d 88bc 765f d2bc
000001c0: abb3 2ebc 5bc2 a7bd 452a 94bd 5856 0d3d
000001d0: 5c36 953d 306a 2c3d ab3b 3c3d c924 92bc
000001e0: 0ddb 77bc 50b3 4c3d 0540 313d b82c b3bc
000001f0: 8842 1e3d 2320 983d 1efc 9f3d ee1c 94bc
00000200: 6558 243c c0b4 9e3d 4329 8d3c 82f4 463d
00000210: c147 9d3d b95e 55bd cec0 c7bb 0202 8bbd
00000220: ea37 86ba a618 923c 42bd 983d 5a93 963d
00000230: 38fc 91bd 3989 3dbd 902a a1bc d5f9 fe3c

weight f4 [64]
1.0 1.0 1.0 1.0 1.0 1.0 1.0 1.0
1.0 1.0 1.0 1.0 1.0 1.0 1.0 1.0
1.0 1.0 1.0 1.0 1.0 1.0 1.0 1.0
1.0 1.0 1.0 1.0 1.0 1.0 1.0 1.0
1.0 1.0 1.0 1.0 1.0 1.0 1.0 1.0
1.0 1.0 1.0 1.0 1.0 1.0 1.0 1.0
1.0 1.0 1.0 1.0 1.0 1.0 1.0 1.0
1.0 1.0 1.0 1.0 1.0 1.0 1.0 1.0
00000000: 0000 803f 0000 803f 0000 803f 0000 803f
00000010: 0000 803f 0000 803f 0000 803f 0000 803f
00000020: 0000 803f 0000 803f 0000 803f 0000 803f
00000030: 0000 803f 0000 803f 0000 803f 0000 803f
00000040: 0000 803f 0000 803f 0000 803f 0000 803f
00000050: 0000 803f 0000 803f 0000 803f 0000 803f
00000060: 0000 803f 0000 803f 0000 803f 0000 803f
00000070: 0000 803f 0000 803f 0000 803f 0000 803f
00000080: 0000 803f 0000 803f 0000 803f 0000 803f
00000090: 0000 803f 0000 803f 0000 803f 0000 803f
000000a0: 0000 803f 0000 803f 0000 803f 0000 803f
000000b0: 0000 803f 0000 803f 0000 803f 0000 803f
000000c0: 0000 803f 0000 803f 0000 803f 0000 803f
000000d0: 0000 803f 0000 803f 0000 803f 0000 803f
000000e0: 0000 803f 0000 803f 0000 803f 0000 803f
000000f0: 0000 803f 0000 803f 0000 803f 0000 803f

bias f4 [64]
0.0 0.0 0.0 0.0 0.0 0.0 0.0 0.0
0.0 0.0 0.0 0.0 0.0 0.0 0.0 0.0
0.0 0.0 0.0 0.0 0.0 0.0 0.0 0.0
0.0 0.0 0.0 0.0 0.0 0.0 0.0 0.0
0.0 0.0 0.0 0.0 0.0 0.0 0.0 0.0
0.0 0.0 0.0 0.0 0.0 0.0 0.0 0.0
0.0 0.0 0.0 0.0 0.0 0.0 0.0 0.0
0.0 0.0 0.0 0.0 0.0 0.0 0.0 0.0
00000000: 0000 0000 0000 0000 0000 0000 0000 0000
00000010: 0000 0000 0000 0000 0000 0000 0000 0000
00000020: 0000 0000 0000 0000 0000 0000 0000 0000
00000030: 0000 0000 0000 0000 0000 0000 0000 0000
00000040: 0000 0000 0000 0000 0000 0000 0000 0000
00000050: 0000 0000 0000 0000 0000 0000 0000 0000
00000060: 0000 0000 0000 0000 0000 0000 0000 0000
00000070: 0000 0000 0000 0000 0000 0000 0000 0000
00000080: 0000 0000 0000 0000 0000 0000 0000 0000
00000090: 0000 0000 0000 0000 0000 0000 0000 0000
000000a0: 0000 0000 0000 0000 0000 0000 0000 0000
000000b0: 0000 0000 0000 0000 0000 0000 0000 0000
000000c0: 0000 0000 0000 0000 0000 0000 0000 0000
000000d0: 0000 0000 0000 0000 0000 0000 0000 0000
000000e0: 0000 0000 0000 0000 0000 0000 0000 0000
000000f0: 0000 0000 0000 0000 0000 0000 0000 0000

running_mean f4 [64]
0.0 0.0 0.0 0.0 0.0 0.0 0.0 0.0
0.0 0.0 0.0 0.0 0.0 0.0 0.0 0.0
0.0 0.0 0.0 0.0 0.0 0.0 0.0 0.0
0.0 0.0 0.0 0.0 0.0 0.0 0.0 0.0
0.0 0.0 0.0 0.0 0.0 0.0 0.0 0.0
0.0 0.0 0.0 0.0 0.0 0.0 0.0 0.0
0.0 0.0 0.0 0.0 0.0 0.0 0.0 0.0
0.0 0.0 0.0 0.0 0.0 0.0 0.0 0.0
00000000: 0000 0000 0000 0000 0000 0000 0000 0000
00000010: 0000 0000 0000 0000 0000 0000 0000 0000
00000020: 0000 0000 0000 0000 0000 0000 0000 0000
00000030: 0000 0000 0000 0000 0000 0000 0000 0000
00000040: 0000 0000 0000 0000 0000 0000 0000 0000
00000050: 0000 0000 0000 0000 0000 0000 0000 0000
00000060: 0000 0000 0000 0000 0000 0000 0000 0000
00000070: 0000 0000 0000 0000 0000 0000 0000 0000
00000080: 0000 0000 0000 0000 0000 0000 0000 0000
00000090: 0000 0000 0000 0000 0000 0000 0000 0000
000000a0: 0000 0000 0000 0000 0000 0000 0000 0000
000000b0: 0000 0000 0000 0000 0000 0000 0000 0000
000000c0: 0000 0000 0000 0000 0000 0000 0000 0000
000000d0: 0000 0000 0000 0000 0000 0000 0000 0000
000000e0: 0000 0000 0000 0000 0000 0000 0000 0000
000000f0: 0000 0000 0000 0000 0000 0000 0000 0000

running_var f4 [64]
1.0 1.0 1.0 1.0 1.0 1.0 1.0 1.0
1.0 1.0 1.0 1.0 1.0 1.0 1.0 1.0
1.0 1.0 1.0 1.0 1.0 1.0 1.0 1.0
1.0 1.0 1.0 1.0 1.0 1.0 1.0 1.0
1.0 1.0 1.0 1.0 1.0 1.0 1.0 1.0
1.0 1.0 1.0 1.0 1.0 1.0 1.0 1.0
1.0 1.0 1.0 1.0 1.0 1.0 1.0 1.0
1.0 1.0 1.0 1.0 1.0 1.0 1.0 1.0
00000000: 0000 803f 0000 803f 0000 803f 0000 803f
00000010: 0000 803f 0000 803f 0000 803f 0000 803f
00000020: 0000 803f 0000 803f 0000 803f 0000 803f
00000030: 0000 803f 0000 803f 0000 803f 0000 803f
00000040: 0000 803f 0000 803f 0000 803f 0000 803f
00000050: 0000 803f 0000 803f 0000 803f 0000 803f
00000060: 0000 803f 0000 803f 0000 803f 0000 803f
00000070: 0000 803f 0000 803f 0000 803f 0000 803f
00000080: 0000 803f 0000 803f 0000 803f 0000 803f
00000090: 0000 803f 0000 803f 0000 803f 0000 803f
000000a0: 0000 803f 0000 803f 0000 803f 0000 803f
000000b0: 0000 803f 0000 803f 0000 803f 0000 803f
000000c0: 0000 803f 0000 803f 0000 803f 0000 803f
000000d0: 0000 803f 0000 803f 0000 803f 0000 803f
000000e0: 0000 803f 0000 803f 0000 803f 0000 803f
000000f0: 0000 803f 0000 803f 0000 803f 0000 803f

weight f4 [6, 64]
-0.0034938015 0.011778315 0.07559245 -0.12190757 -0.073316745 -0.064047754 0.05297444 -0.019666465
-0.05880117 0.06264325 -0.009458708 0.06494076 0.023544904 -0.0518043 0.09036728 -0.02234531
0.11153989 -0.12134037 0.110374205 -0.12750253 0.08772934 0.033363543 0.06291382 0.035892706
0.0007909965 0.085001074 -0.07105548 -0.07926131 0.07205971 0.036763504 -0.050942358 -0.123919584
0.06786041 -0.0138511555 0.0225083 -0.016082205 0.07407815 -0.09862109 0.016644064 -0.026700346
-0.053407814 -0.08226355 -0.03832925 -0.121656746 0.09409992 0.09711682 -0.09337834 0.07363241
-0.06872322 0.050846208 -0.063097045 0.09427785 0.07482288 -0.06705472 -0.0955094 -0.0070863278
-0.0061316825 0.021951593 0.10238927 -0.032261703 -0.09866402 0.05516992 0.082850926 0.035272393
0.08069111 -0.05361278 -0.006146675 -0.03217353 0.09672127 0.048573773 -0.0058090207 0.06626097
0.09258855 0.055368535 0.023572706 -0.058070507 -0.024125062 -0.10316347 -0.02104787 -0.0765042
-0.06754294 -0.020713326 0.09178864 -0.11133558 -0.0028365161 0.10270622 -0.09747494 0.038918722
-0.05217151 0.05543525 0.07372964 -0.07860535 0.064736456 0.105731405 -0.09889688 -0.10581329
-0.0071717096 0.007068737 0.052825257 0.09132262 0.028851287 -0.05736726 0.08013999 0.096953295
-0.072425544 0.09083659 0.08887855 -0.024227757 -0.13101867 -0.13296704 0.06489486 -0.024508446
-0.035374597 -0.009348877 0.047521506 -0.09254912 -0.022982229 -0.04320722 -0.018449428 0.1088208
-0.046173517 -0.069563836 0.047970284 0.0628216 -0.06662073 -0.061367117 0.01251396 0.053233758
0.09832677 0.038306467 0.08344929 0.017654905 -0.041003052 -0.014311416 -0.03057259 -0.011310611
0.0120185 0.041070856 -0.010544449 -0.016464798 -0.0013008944 -0.07359787 -0.0028175183 0.10367678
-0.011081202 -0.031061828 -0.0046282825 0.09810048 -0.121831 -0.11970721 0.108105496 -0.059973277
-0.0916549 0.0024350395 -0.08748314 -0.020872656 -0.07838127 -0.03631961 0.095423326 0.03462454
-0.048893936 0.11725668 -0.049591728 0.0010944861 0.06853692 0.070966676 0.082138896 0.09163937
0.11854381 0.10632329 0.010116584 0.117468394 -0.018906388 -0.008352509 -0.055718787 -0.0047847484
0.09160322 -0.111277536 0.101276904 0.09803218 -0.0036877 -0.095113486 0.008025022 -0.026252545
-0.0538371 -0.090506196 -0.11376695 -0.01463916 -0.012532142 -0.049742825 -0.08484222 -0.10874222
0.055349924 -0.06384721 -0.01850462 -0.058547992 0.04532967 -0.0500588 -0.028793832 0.09939314
-0.07527936 0.08304221 -0.022545468 0.038754117 0.079498746 0.022949362 0.05853565 -0.045840386
0.0021299897 -0.05973638 0.1180837 -0.013272855 -0.055441324 0.11432583 -0.055160124 -0.026683161
-0.033125374 -0.081463285 -0.10884424 0.0072258697 -0.09361132 -0.05960629 0.09008593 -0.109648384
0.03538344 0.10249502 0.055960078 -0.063716166 -0.09341613 0.07062682 0.0008928441 0.10242621
-0.026554193 0.019972254 -0.026921058 0.1152669 -0.0151367355 -0.07544672 -0.0670797 -0.091254555
0.095559336 -0.06889077 -0.03345621 0.024029054 0.083080165 0.057535652 -0.11976092 0.09579686
0.005700003 0.07391106 0.0062955515 -0.038374443 0.06544331 -0.024977814 -0.07821215 0.058238786
00000000: 43f8 64bb d5f9 403c 37d0 9a3d adaa f9bd
00000010: 1727 96bd 782b 83bd bafb 583d 911b a1bc
00000020: 7fd9 70bd 1b4b 803d b2f8 1abc a9ff 843d
00000030: 3ee1 c03c bf30 54bd 7b12 b93d 830d b7bc
00000040: 076f e43d 4d81 f8bd df0b e23d 0690 02be
00000050: 71ab b33d 36a8 083d f6d8 803d 3b04 133d
00000060: e05a 4f3a 0b15 ae3d 8985 91bd c153 a2bd
00000070: 0b94 933d 5495 163d efa8 50bd 8dc9 fdbd
00000080: 66fa 8a3d f5ef 62bc 5463 b83c d4be 83bc
00000090: 49b6 973d dbf9 c9bd 2259 883c afba dabc
000000a0: 27c2 5abd cb79 a8bd 22ff 1cbd 2c27 f9bd
000000b0: 75b7 c03d 2fe5 c63d 253d bfbd 97cc 963d
000000c0: c2be 8cbd 1d44 503d 0639 81bd bf14 c13d
000000d0: bd3c 993d fc53 89bd 6f9a c3bd 6d34 e8bb
000000e0: 48ec c8bb d4d3 b33c 77b1 d13d d924 04bd
000000f0: 5d10 cabd dbf9 613d bfad a93d c979 103d
00000100: 6141 a53d 1399 5bbd 0c6a c9bb 64c8 03bd
00000110: cd15 c63d 4bf5 463d 9959 bebb d5b3 873d
00000120: 119f bd3d 1eca 623d 8c1b c13c 57db 6dbd
00000130: eca1 c5bc 5f47 d3bd 956c acbc 3cae 9cbd
00000140: f453 8abd feae a9bc affb bb3d e903 e4bd
00000150: d8e4 39bb a357 d23d f1a0 c7bd 3d69 1f3d
00000160: cbb1 55bd 1310 633d 91ff 963d d7fb a0bd
00000170: 8c94 843d b589 d83d 738a cabd a3b4 d8bd
00000180: a900 ebbb dda0 e73b 4c5f 583d 5b07 bb3d
00000190: 8959 ec3c eff9 6abd 6f20 a43d 738f c63d
000001a0: d853 94bd 8908 ba3d f505 b63d 4a79 c6bc
000001b0: c229 06be 8328 08be 99e7 843d f0c5 c8bc
000001c0: f4e4 10bd 082c 19bc e9a5 423d 658a bdbd
000001d0: 3a45 bcbc 0efa 30bd 4123 97bc 71dd de3d
000001e0: 7120 3dbd 7c77 8ebd 7d7c 443d 9ca8 803d
000001f0: 7370 88bd 165c 7bbd 5a07 4d3c a40b 5a3d
00000200: 8c5f c93d 3ee7 1c3d 76e7 aa3d 05a1 903c
00000210: d1f2 27bd 6e7a 6abc 5e73 fabc 2450 39bc
00000220: 3ee9 443c ea39 283d a0c2 2cbc 2fe1 86bc
00000230: c682 aaba 7bba 96bd 1da6 38bb 7e54 d43d
00000240: ee8d 35bc 6075 febc d9a8 97bb e8e8 c83d
00000250: 8882 f9bd 0e29 f5bd 6a66 dd3d 8aa6 75bd
00000260: 90b5 bbbd 2f95 1f3b 5c2a b3bd 22fd aabc
00000270: 5c86 a0bd dfc3 14bd 4e6d c33d 76d2 0d3d
00000280: 0245 48bd 4524 f03d b220 4bbd dc74 8f3a
00000290: 165d 8c3d fa56 913d 7038 a83d 6cad bb3d
000002a0: 19c7 f23d 06c0 d93d 07c0 253c 4593 f03d
000002b0: 92e1 9abc f6d8 08bc 6239 64bd 61c9 9cbb
000002c0: 789a bb3d 7ae5 e3bd 446a cf3d 18c5 c83d
000002d0: 57ad 71bb dcca c2bd 627b 033c 940f d7bc
000002e0: 4a84 5cbd 505b b9bd a6fe e8bd 16d9 6fbc
000002f0: 9d53 4dbc 22bf 4bbd c2c1 adbd 3eb4 debd
00000300: 9ab6 623d 53c2 82bd 0097 97bc 05d0 6fbd
00000310: 9bab 393d 750a 4dbd 0be1 ebbc a18e cb3d
00000320: 112c 9abd 0912 aa3d 46b1 b8bc a3bc 1e3d
00000330: 3dd0 a23d 4d00 bc3c 14c3 6f3d 21c3 3bbd
00000340: 4c97 0b3b 22ae 74bd ded5 f13d 6476 59bc
00000350: 7116 63bd a923 ea3d 95ef 61bd a596 dabc
00000360: 79ae 07bd 39d6 a6bd bbe9 debd fdc6 ec3b
00000370: 4bb7 bfbd ba25 74bd f97e b83d 558f e0bd
00000380: 3aee 103d e9e8 d13d 6536 653d 9f7d 82bd
00000390: f550 bfbd cba4 903d c10d 6a3a d5c4 d13d
000003a0: 2e88 d9bc da9c a33c 8d89 dcbc 0d11 ec3d
000003b0: 1200 78bc cf83 9abd 1561 89bd abe3 babd
000003c0: 9db4 c33d 9b16 8dbd 6109 09bd 94d8 c43c
000003d0: ef25 aa3d 81aa 6b3d 3745 f5bd 2531 c43d
000003e0: 17c7 ba3b af5e 973d ea4a ce3b 852e 1dbd
000003f0: 2407 863d 469e ccbc b12d a0bd cb8b 6e3d

bias f4 [6]
-1.0538661 -1.0538661 -1.0538661 -1.0538661 -1.0538661 -1.0538661
00000000: 16e5 86bf 16e5 86bf 16e5 86bf 16e5 86bf
00000010: 16e5 86bf 16e5 86bf
