presentation/pong_cnn_1k/pretrained_model_ALE_Pong-v5_DQN_CONV_1000.pth (torch, 8460 bytes, 7 tensors)

weight f4 [1, 1, 12, 12]
-0.050502636 -0.07659649 0.05387178 -0.06612855 -0.057331532 0.029695475 -0.03059732 -0.034610912
-0.027619911 -0.06097873 -0.0077430783 -0.030771788 -0.07412846 -0.057901487 0.00522853 0.024821697
-0.02470108 0.06829206 -0.04942163 0.05059138 0.02595897 -0.00050354266 -0.02073347 0.033310596
0.007249221 -0.06914759 -0.022467878 -0.033039108 -0.0093777105 -0.016530018 0.05503725 0.005844386
0.079735145 0.0059159175 0.01625151 -0.067873195 0.013421228 0.07770734 -0.020825876 0.08334377
0.081672184 0.06642154 0.00049852795 0.05433569 0.05868892 -0.053768065 -0.036772683 -0.05403106
0.041311704 -0.072523564 -0.06721627 -0.02472559 0.05931648 -0.038625356 0.028297193 -0.05672964
-0.060662553 -0.07429078 0.02665718 0.004349997 0.03246428 -0.06388422 0.0779228 0.013277916
-0.03089923 0.03330155 -0.06897303 -0.0002364026 0.031951148 -0.06450211 0.043400012 0.07375136
0.076699935 -0.03330626 0.013564998 0.021084338 0.007928199 0.077416815 0.03336918 -0.03837305
-0.06459297 -0.021541173 0.045981538 -0.026863974 -0.01674908 -0.022584705 -0.07560442 0.018873243
0.05526336 0.02972423 -0.038167905 -0.04544558 -0.055326767 0.06356809 -0.066474825 -0.011509649
0.04740021 0.06365817 -0.06440908 -0.048107855 -0.04198261 -0.076400876 -0.057435907 -0.029000374
0.038626738 0.04589997 -0.07353243 -0.063084826 0.018299835 0.031764038 -0.057413068 0.05040632
0.0846319 0.0827926 -0.018810747 0.07833076 0.03712504 -0.0060290573 0.020907393 0.06601779
0.009243191 0.07300186 0.011080481 0.060789954 0.0039368877 -0.0011482032 -0.075659305 -0.0023063354
-0.058055177 -0.030898575 0.085484974 -0.003977828 -0.043597747 0.037801098 0.0825854 0.072160535
-0.0043559284 0.012176048 0.047906544 -0.035462484 0.040174436 0.033569768 0.05904249 -0.009012455
00000000: dadb 4ebd 9fde 9cbd a8a8 5c3d 686e 87bd
00000010: 78d4 6abd ed43 f33c 3ba7 fabc 2cc4 0dbd
00000020: 2743 e2bc d5c4 79bd a6b9 fdbb 1e15 fcbc
00000030: a9d0 97bd 1c2a 6dbd 1754 ab3b df56 cb3c
00000040: eb59 cabc b5dc 8b3d 566e 4abd e838 4f3d
00000050: e8a7 d43c 2d00 04ba 3dd9 a9bc b170 083d
00000060: e08a ed3b 409d 8dbd 8e0e b8bc 0454 07bd
00000070: f8a4 19bc f669 87bc bd6e 613d 4382 bf3b
00000080: 2e4c a33d 50da c13b e321 853c 1a01 8bbd
00000090: b6e4 5b3c 0725 9f3d 079b aabc 23b0 aa3d
000000a0: bf43 a73d 0408 883d a5af 023a 1a8f 5e3d
000000b0: cb63 703d e73b 5cbd f49e 16bd ac4f 5dbd
000000c0: 7636 293d 3c87 94bd afa8 89bd 528d cabc
000000d0: d6f5 723d 9f35 1ebd 84cf e73c 575d 68bd
000000e0: 4c79 78bd c425 98bd 2960 da3c 6b8a 8e3b
000000f0: 44f9 043d bbd5 82bd fd95 9f3d 9e8b 593c
00000100: 6220 fdbc 3567 083d bb41 8dbd d7e2 77b9
00000110: 35df 023d af19 84bd 36c4 313d f40a 973d
00000120: db14 9d3d 256c 08bd ba3f 5e3c 10b9 ac3c
00000130: 47e5 013c b58c 9e3d 1fae 083d 0f2d 1dbd
00000140: 5249 84bd 1d77 b0bc 2357 3c3d d611 dcbc
00000150: 5e35 89bc 8f03 b9bc 7dd6 9abd 0f9c 9a3c
00000160: d55b 623d 3a80 f33c f355 1cbd 2525 3abd
00000170: 529e 62bd fd2f 823d f423 88bd f892 3cbc
00000180: b926 423d 375f 823d e8e8 83bd be0c 45bd
00000190: f5f5 2bbd 1078 9cbd ea41 6bbd 3192 edbc
000001a0: 1237 1e3d 9b01 3c3d 2c98 96bd 9e32 81bd
000001b0: 89e9 953c 021b 023d f729 6bbd db76 4e3d
000001c0: 7d53 ad3d 2b8f a93d ff18 9abc e16b a03d
000001d0: 6d10 183d 668f c5bb fb45 ab3c 5634 873d
000001e0: c170 173c 0082 953d e88a 353c e3fe 783d
000001f0: 0201 813b 4e7f 96ba 44f3 9abd e325 17bb
00000200: 44cb 6dbd 021f fdbc bf12 af3d 7158 82bb
00000210: 8d93 32bd 53d5 1a3d 8922 a93d e7c8 933d
00000220: 2dbc 8ebb 0c7e 473c a739 443d 1c41 11bd
00000230: f38d 243d 7480 093d 8ad6 713d faa8 13bc

weight f4 [64]
1.0 1.0 1.0 1.0 1.0 1.0 1.0 1.0
1.0 1.0 1.0 1.0 1.0 1.0 1.0 1.0
1.0 1.0 1.0 1.0 1.0 1.0 1.0 1.0
1.0 1.0 1.0 1.0 1.0 1.0 1.0 1.0
1.0 1.0 1.0 1.0 1.0 1.0 1.0 1.0
1.0 1.0 1.0 1.0 1.0 1.0 1.0 1.0
1.0 1.0 1.0 1.0 1.0 1.0 1.0 1.0
1.0 1.0 1.0 1.0 1.0 1.0 1.0 1.0
00000000: 0000 803f 0000 803f 0000 803f 0000 803f
00000010: 0000 803f 0000 803f 0000 803f 0000 803f
00000020: 0000 803f 0000 803f 0000 803f 0000 803f
00000030: 0000 803f 0000 803f 0000 803f 0000 803f
00000040: 0000 803f 0000 803f 0000 803f 0000 803f
00000050: 0000 803f 0000 803f 0000 803f 0000 803f
00000060: 0000 803f 0000 803f 0000 803f 0000 803f
00000070: 0000 803f 0000 803f 0000 803f 0000 803f
00000080: 0000 803f 0000 803f 0000 803f 0000 803f
00000090: 0000 803f 0000 803f 0000 803f 0000 803f
000000a0: 0000 803f 0000 803f 0000 803f 0000 803f
000000b0: 0000 803f 0000 803f 0000 803f 0000 803f
000000c0: 0000 803f 0000 803f 0000 803f 0000 803f
000000d0: 0000 803f 0000 803f 0000 803f 0000 803f
000000e0: 0000 803f 0000 803f 0000 803f 0000 803f
000000f0: 0000 803f 0000 803f 0000 803f 0000 803f

bias f4 [64]
0.0 0.0 0.0 0.0 0.0 0.0 0.0 0.0
0.0 0.0 0.0 0.0 0.0 0.0 0.0 0.0
0.0 0.0 0.0 0.0 0.0 0.0 0.0 0.0
0.0 0.0 0.0 0.0 0.0 0.0 0.0 0.0
0.0 0.0 0.0 0.0 0.0 0.0 0.0 0.0
0.0 0.0 0.0 0.0 0.0 0.0 0.0 0.0
0.0 0.0 0.0 0.0 0.0 0.0 0.0 0.0
0.0 0.0 0.0 0.0 0.0 0.0 0.0 0.0
00000000: 0000 0000 0000 0000 0000 0000 0000 0000
00000010: 0000 0000 0000 0000 0000 0000 0000 0000
00000020: 0000 0000 0000 0000 0000 0000 0000 0000
00000030: 0000 0000 0000 0000 0000 0000 0000 0000
00000040: 0000 0000 0000 0000 0000 0000 0000 0000
00000050: 0000 0000 0000 0000 0000 0000 0000 0000
00000060: 0000 0000 0000 0000 0000 0000 0000 0000
00000070: 0000 0000 0000 0000 0000 0000 0000 0000
00000080: 0000 0000 0000 0000 0000 0000 0000 0000
00000090: 0000 0000 0000 0000 0000 0000 0000 0000
000000a0: 0000 0000 0000 0000 0000 0000 0000 0000
000000b0: 0000 0000 0000 0000 0000 0000 0000 0000
000000c0: 0000 0000 0000 0000 0000 0000 0000 0000
000000d0: 0000 0000 0000 0000 0000 0000 0000 0000
000000e0: 0000 0000 0000 0000 0000 0000 0000 0000
000000f0: 0000 0000 0000 0000 0000 0000 0000 0000

running_mean f4 [64]
0.0 0.0 0.0 0.0 0.0 0.0 0.0 0.0
0.0 0.0 0.0 0.0 0.0 0.0 0.0 0.0
0.0 0.0 0.0 0.0 0.0 0.0 0.0 0.0
0.0 0.0 0.0 0.0 0.0 0.0 0.0 0.0
0.0 0.0 0.0 0.0 0.0 0.0 0.0 0.0
0.0 0.0 0.0 0.0 0.0 0.0 0.0 0.0
0.0 0.0 0.0 0.0 0.0 0.0 0.0 0.0
0.0 0.0 0.0 0.0 0.0 0.0 0.0 0.0
00000000: 0000 0000 0000 0000 0000 0000 0000 0000
00000010: 0000 0000 0000 0000 0000 0000 0000 0000
00000020: 0000 0000 0000 0000 0000 0000 0000 0000
00000030: 0000 0000 0000 0000 0000 0000 0000 0000
00000040: 0000 0000 0000 0000 0000 0000 0000 0000
00000050: 0000 0000 0000 0000 0000 0000 0000 0000
00000060: 0000 0000 0000 0000 0000 0000 0000 0000
00000070: 0000 0000 0000 0000 0000 0000 0000 0000
00000080: 0000 0000 0000 0000 0000 0000 0000 0000
00000090: 0000 0000 0000 0000 0000 0000 0000 0000
000000a0: 0000 0000 0000 0000 0000 0000 0000 0000
000000b0: 0000 0000 0000 0000 0000 0000 0000 0000
000000c0: 0000 0000 0000 0000 0000 0000 0000 0000
000000d0: 0000 0000 0000 0000 0000 0000 0000 0000
000000e0: 0000 0000 0000 0000 0000 0000 0000 0000
000000f0: 0000 0000 0000 0000 0000 0000 0000 0000

running_var f4 [64]
1.0 1.0 1.0 1.0 1.0 1.0 1.0 1.0
1.0 1.0 1.0 1.0 1.0 1.0 1.0 1.0
1.0 1.0 1.0 1.0 1.0 1.0 1.0 1.0
1.0 1.0 1.0 1.0 1.0 1.0 1.0 1.0
1.0 1.0 1.0 1.0 1.0 1.0 1.0 1.0
1.0 1.0 1.0 1.0 1.0 1.0 1.0 1.0
1.0 1.0 1.0 1.0 1.0 1.0 1.0 1.0
1.0 1.0 1.0 1.0 1.0 1.0 1.0 1.0
00000000: 0000 803f 0000 803f 0000 803f 0000 803f
00000010: 0000 803f 0000 803f 0000 803f 0000 803f
00000020: 0000 803f 0000 803f 0000 803f 0000 803f
00000030: 0000 803f 0000 803f 0000 803f 0000 803f
00000040: 0000 803f 0000 803f 0000 803f 0000 803f
00000050: 0000 803f 0000 803f 0000 803f 0000 803f
00000060: 0000 803f 0000 803f 0000 803f 0000 803f
00000070: 0000 803f 0000 803f 0000 803f 0000 803f
00000080: 0000 803f 0000 803f 0000 803f 0000 803f
00000090: 0000 803f 0000 803f 0000 803f 0000 803f
000000a0: 0000 803f 0000 803f 0000 803f 0000 803f
000000b0: 0000 803f 0000 803f 0000 803f 0000 803f
000000c0: 0000 803f 0000 803f 0000 803f 0000 803f
000000d0: 0000 803f 0000 803f 0000 803f 0000 803f
000000e0: 0000 803f 0000 803f 0000 803f 0000 803f
000000f0: 0000 803f 0000 803f 0000 803f 0000 803f

weight f4 [6, 64]
-0.08401526 0.008955539 -0.08258673 0.05282628 0.028931007 0.008432358 0.067562796 0.044897974
-0.044253193 -0.11084614 0.058077242 0.03385521 -0.009939459 0.07806501 0.011926521 0.1129789
0.0047936984 -0.06355753 -0.11338045 -0.09870019 -0.02109027 0.086898886 0.10695081 -0.101311155
-0.01740188 -0.061913256 -0.0051439004 -0.06838565 0.07434565 0.05046081 -0.07631417 -0.09578856
0.11936752 0.09194196 0.12170104 0.008249237 0.055007216 0.018706277 -0.08465359 -0.07807543
0.1015467 -0.07489399 -0.0017953755 0.007115188 0.006764719 -0.007318954 0.024500035 0.07856471
0.08187521 -0.03677817 0.0804427 -0.06024401 0.01868666 -0.05967223 -0.04412221 0.10167942
0.1004793 -0.07841613 -0.10626065 -0.016677026 0.040936846 0.037394978 -0.11226023 -0.0759267
0.046890177 -0.024607647 -0.117464736 -0.07005229 -0.0026052133 0.062206246 0.1138647 0.100857474
-0.0973567 -0.05760813 -0.03283293 0.026473317 0.05733623 0.0012427084 0.016482035 -0.030630404
0.060427837 0.0033284503 0.105700545 -0.09058177 -0.09206759 -0.050757773 0.09385077 -0.10325413
-0.107092254 -0.008575398 0.067263484 -0.09871777 -0.085332654 0.036435537 0.011873648 -0.039738204
-0.04238091 0.075039364 0.009166093 -0.0012487697 -0.011891505 -0.01332916 0.06983655 -0.10250237
-0.042144638 0.0147009995 -0.008952384 0.0629499 0.090904646 0.11216513 -0.019614697 -0.028700814
0.09814624 0.033720244 -0.062778264 0.11706043 0.050204597 0.06855501 0.02985108 -0.112752125
-0.07727639 0.001275683 0.122731045 0.08917192 -0.10315896 -0.09046892 0.11015367 -0.11144376
-0.07972016 0.010637121 -0.023326293 -0.008227188 -0.102483265 0.034817234 -0.083859466 0.09801293
-0.09130218 -0.059951596 -0.017280346 0.03848315 0.0033091262 0.08967192 -0.034206875 -0.089725874
0.01502704 -0.012142451 -0.0047264155 0.025009258 0.09895363 0.09098167 -0.064578675 0.023902724
-0.049749285 -0.06541569 -0.006897874 0.10784512 0.0026503797 0.015234892 -0.027907385 -0.046705164
-0.07932528 -0.047617625 -0.05126782 0.01949963 0.0036275466 -0.053186182 -0.0424793 -0.0743605
-0.036289908 0.075139634 -0.07098467 -0.0077931066 -0.047193345 0.026747117 -0.038163476 0.07370475
0.017847843 0.07492163 0.07153229 0.07453906 -0.109085254 0.13548519 0.09376293 0.13113049
0.10541228 0.13067053 -0.05066037 -0.1079159 0.034096975 -0.089926325 0.13117525 0.02314301
-0.074113905 0.124155894 -0.11522956 -0.06384615 -0.100095615 -0.0230839 -0.09821504 0.023545125
0.12624899 0.024668656 0.055904116 0.123951264 -0.014641013 0.06771171 -0.0042256224 0.119529754
0.07451092 0.07791243 -0.06941901 -0.018324183 -0.10395056 0.006331392 -0.04754431 0.11301415
-0.09544882 0.013857228 0.002638066 -0.08797902 0.033942427 -0.046038985 0.004047347 0.0037582465
-0.09630875 -0.03848188 -0.0121002905 -0.04046554 -0.08007459 0.075573176 0.07205184 0.054311823
-0.11221391 0.0057296767 -0.09844242 -0.023844874 -0.038644943 0.10544287 -0.07863423 0.0029128308
-0.034182582 -0.0071382504 0.09958483 -0.06805892 0.117961824 -0.0063357293 0.12767345 -0.028369818
0.052797075 -0.07880445 0.11102302 -0.03106739 0.018564556 0.049983047 -0.1074119 0.09020454
00000000: 3110 acbd 41ba 123c 3b23 a9bd 5f60 583d
00000010: b800 ed3c df27 0a3c 5d5e 8a3d f0e6 373d
00000020: d642 35bd 4d03 e3bd 67e2 6d3d c3ab 0a3d
00000030: 1dd9 22bc 8ce0 9f3d 7467 433c 7b61 e73d
00000040: 7514 9d3b 732a 82bd 0234 e8bd 5323 cabd
00000050: 80c5 acbc 0bf8 b13d 0709 db3d 397c cfbd
00000060: 638e 8ebc c198 7dbd 2a8e a8bb c70d 8cbd
00000070: 8842 983d ffaf 4e3d 9b4a 9cbd cb2c c4bd
00000080: f576 f43d 114c bc3d 653e f93d cf27 073c
00000090: 3f4f 613d e83d 993c dd5e adbd 03e6 9fbd
000000a0: b7f7 cf3d 0562 99bd ce52 ebba 8626 e93b
000000b0: 93aa dd3b d6d3 efbb 4cb4 c83c 89e6 a03d
000000c0: 31ae a73d b5a4 16bd 24bf a43d 6cc2 76bd
000000d0: c414 993c de6a 74bd 7eb9 34bd 4d3d d03d
000000e0: 17c8 cd3d a398 a0bd 2f9f d9bd 429e 88bc
000000f0: 65ad 273d 7a2b 193d b1e8 e5bd 757f 9bbd
00000100: ea0f 403d fa95 c9bc 5a91 f0bd 9377 8fbd
00000110: 3abc 2abb facb 7e3d e531 e93d 5d8e ce3d
00000120: f362 c7bd 81f6 6bbd d37b 06bd 92de d83c
00000130: 65d9 6a3d 60e2 a23a 5505 873c 9dec fabc
00000140: 2e83 773d 2122 5a3b 8779 d83d ef82 b9bd
00000150: ef8d bcbd 62e7 4fbd d534 c03d e776 d3bd
00000160: 2f53 dbbd d37f 0cbc 70c1 893d 8b2c cabd
00000170: e3c2 aebd 6e3d 153d b089 423c 87c4 22bd
00000180: 9b97 2dbd 3dae 993d 612d 163c c2ad a3ba
00000190: 96d4 42bc 8d62 5abc 7706 8f3d c3ec d1bd
000001a0: db9f 2cbd 76dc 703c 05ad 12bc e1eb 803d
000001b0: 372c ba3d d5b6 e53d 00af a0bc f81d ebbc
000001c0: e500 c93d 3d1e 0a3d e491 80bd 61bd ef3d
000001d0: 56a3 4d3d 9266 8c3d 418a f43c 96ea e6bd
000001e0: 1543 9ebd d234 a73a 6a5a fb3d c59f b63d
000001f0: 0145 d3bd c547 b9bd 3f98 e13d a03c e4bd
00000200: 5344 a3bd 5247 2e3c c816 bfbc 54cb 06bc
00000210: bfe2 d1bd 849c 0e3d 83be abbd 01bb c83d
00000220: a3fc babd ce8f 75bd 838f 8dbc 82a0 1d3d
00000230: eddd 583b e9a5 b73d 821c 0cbd 33c2 b7bd
00000240: f933 763c 21f1 46bc 0ce0 9abb 37e0 cc3c
00000250: 33a8 ca3d 9954 ba3d d341 84bd a5cf c33c
00000260: e8c5 4bbd a9f8 85bd 9007 e2bb e7dd dc3d
00000270: feb1 2d3b c59b 793c 079e e4bc ea4d 3fbd
00000280: 4b75 a2bd b30a 43bd 35fe 51bd b0bd 9f3c
00000290: 22bc 6d3b c1d9 59bd c6fe 2dbd 514a 98bd
000002a0: baa4 14bd cfe2 993d 6960 91bd 515d ffbb
000002b0: cf4d 41bd c51c db3c 4e51 1cbd 84f2 963d
000002c0: a435 923c 8370 993d 857f 923d efa7 983d
000002d0: 1768 dfbd a1bc 0a3e c706 c03d 1247 063e
000002e0: 65e2 d73d 7fce 053e 4081 4fbd 0303 ddbd
000002f0: 45a9 0b3d 4b2b b8bd ce52 063e 6996 bd3c
00000300: 08c9 97bd 7245 fe3d 7afd ebbd c5c1 82bd
00000310: eefe ccbd 721a bdbc f824 c9bd b5e1 c03c
00000320: 6a47 013e ec15 ca3c b7fb 643d 29da fd3d
00000330: dce0 6fbc 70ac 8a3d 1777 8abb 04cc f43d
00000340: 2e99 983d 8d90 9f3d 8e2b 8ebd 991c 96bc
00000350: 08e4 d4bd 9177 cf3b d3bd 42bd f673 e73d
00000360: ac7a c3bd 6d09 633c 67e3 2c3b 582e b4bd
00000370: 3707 0b3d 6093 3cbd 9c9f 843b ea4c 763b
00000380: 863d c5bd 2d9f 1dbd 4c40 46bc 32bf 25bd
00000390: 26fe a3bd 1cc6 9a3d ea8f 933d 1376 5e3d
000003a0: 68d0 e5bd 03c0 bb3b 2e9c c9bd 5356 c3bc
000003b0: 294a 1ebd 6ef2 d73d fc0a a1bd 31e5 3e3b
000003c0: 0903 0cbd fce7 e9bb 22f3 cb3d 7a62 8bbd
000003d0: f895 f13d f39b cfbb d4bc 023e d267 e8bc
000003e0: bf41 583d 3a64 a1bd 0a60 e33d 0a81 febc
000003f0: b214 983c 06bb 4c3d c5fa dbbd 28bd b83d

bias f4 [6]
-0.27174097 -0.2584533 -0.26266947 -0.26757634 -0.27944082 -0.26175022
00000000: a221 8bbe fe53 84be 9d7c 86be c4ff 88be
00000010: de12 8fbe 2004 86be
